Output/model1_3dcnn.pth (torch, 376345 bytes, 11 tensors)

encoder.0.weight f4 [16, 1, 3, 3, 3]
000000 a7 9a fb bc 10 4c 24 be 3d ed 25 3c 62 57 40 3c
       -0.030713392 -0.1604464 0.010127363 0.011739584
000010 8c ba 1b be 55 10 a8 bd 5e 93 22 be 55 28 39 bb
       -0.1520788 -0.0820624 -0.15876529 -0.00282528
000020 69 55 d5 bd 2b 0d b2 3d 2b b1 b0 3d 92 51 0e bd
       -0.10416681 0.08693918 0.08627542 -0.03474576
000030 9e 00 05 be 69 15 27 be 69 d6 9d bd b0 50 d4 bd
       -0.12988517 -0.16316761 -0.07706911 -0.103669524
000040 80 77 f6 3c a9 8a 5c be cf 7b 08 3e 51 76 47 be
       0.030086279 -0.2153727 0.13328479 -0.19478728
000050 68 51 c4 3d cd 2f a9 bd 4a 97 3f 3d a0 d1 b6 3c
       0.095858395 -0.082610704 0.04677514 0.022316754
000060 ee ec 2c bd 85 3f 83 bc cf 7c c0 3d d5 18 c4 bb
       -0.04221814 -0.0160215 0.09398805 -0.0059844055
000070 8d 41 07 3d ee ee 60 be 70 aa b1 3d 3f 9d 1b 3c
       0.0330215 -0.21966144 0.086750865 0.00949794
000080 76 38 a3 bc b8 de 68 bc cd b7 42 3d 66 cb ef 3d
       -0.019924384 -0.014213257 0.047538567 0.11708717
000090 ae a4 dc bd 16 dd 37 be c7 13 07 be 98 a4 2e be
       -0.10773598 -0.17955431 -0.13191138 -0.17054975
0000a0 0a c4 c8 3c 90 64 29 be 31 18 17 be 99 bf e0 3d
       0.024507541 -0.16542268 -0.14755322 0.10974044
0000b0 fe b0 df 3d 3e 24 13 bd dd 5c cb bd b7 47 cf bd
       0.109224305 -0.035923235 -0.09929822 -0.101211004
0000c0 d5 6d 27 3d cd 66 66 be 7f da 5c be ca 1a e7 3d
       0.04087623 -0.22500153 -0.21567725 0.112844065
0000d0 b0 ae 12 3e 76 d6 81 bd 6f 14 4d be 12 ee 54 bd
       0.1432445 -0.06339733 -0.20027326 -0.051984854
0000e0 29 d1 16 be 57 54 45 bd ed 2f 2c 3d 5b 55 df 3c
       -0.14728226 -0.048176136 0.042037893 0.02726238
0000f0 c2 16 8b bd 91 2e e1 bc 9e 18 9a bb eb 70 5b be
       -0.0679145 -0.027488025 -0.0047026416 -0.21429794
000100 ec a0 0b be 64 02 8a bd 44 50 2c be 0a 17 16 be
       -0.13635606 -0.06738737 -0.16827494 -0.14657226
000110 e4 68 b9 bb 09 00 55 3d 3e c5 6d bd d3 ce 11 be
       -0.005658256 0.052001987 -0.058049433 -0.14239053
000120 4d 12 4a 3d cb 5e 26 be cc 75 d8 bd 9d 39 08 3e
       0.04933386 -0.16247098 -0.10569343 0.13303228
000130 e3 70 69 bc 4f 3b 29 bd 71 18 ac 3c 34 41 bc bd
       -0.014248106 -0.041316327 0.021007748 -0.09192124
000140 a6 b0 e2 3d b4 1a 3d be 76 02 b0 bd db 38 8d bd
       0.11068849 -0.18467218 -0.085942194 -0.0689561
000150 ac 40 c7 bd 7c 5b 98 bd 67 d8 ac 3d d7 aa ba 3d
       -0.09729132 -0.07439324 0.08439713 0.09114616
000160 0a 2e 91 bc a1 35 04 3e 2d 6e 41 be 55 b3 2f be
       -0.017722148 0.12911083 -0.18889685 -0.17158253
000170 15 bf c0 3c e7 6c 62 bd f7 74 67 be a1 dc 3f be
       0.023528615 -0.05527964 -0.22603212 -0.18736507
000180 e0 86 1c be 06 99 c2 3d 77 7e de 3c 65 6f e7 3d
       -0.15285826 0.09501843 0.027159913 0.11300544
000190 91 fc 32 be 7c fd 64 be 71 50 15 be 6d ed 2a bc
       -0.17479159 -0.22362322 -0.14581467 -0.010432583
0001a0 9e d1 8f bd b6 b7 07 be 6a 29 dd 3d 48 d0 cb bd
       -0.07022403 -0.13253674 0.10798915 -0.09951836
0001b0 ab f6 2c be a7 57 bd 3c 10 e6 f4 bd f6 08 7f 3d
       -0.16890971 0.023113085 -0.119579434 0.062264405
0001c0 ee 37 9b bc 7c 7f 81 bd 3b 4b 84 bc 5e 21 50 be
       -0.018947568 -0.06323144 -0.016149154 -0.20325229
0001d0 0e 84 2c be 67 32 20 be 0f c5 36 be 27 1f 19 bd
       -0.1684725 -0.15644227 -0.1784861 -0.037383225
0001e0 35 e9 e2 bc f7 58 17 be ca c6 65 3d d2 0c 2b be
       -0.027699092 -0.14780031 0.056097783 -0.1670411
0001f0 6f 4f d4 bc fd 90 f9 bd 72 2a 6b be 36 24 44 be
       -0.025916783 -0.121858574 -0.2296541 -0.19154438
000200 01 c5 25 3c 85 0d 3f 3c f8 2e 3a be a0 a9 fd bd
       0.01011777 0.011660938 -0.1818198 -0.12385869
000210 e1 8b 70 be ad f4 2d 3d 42 c1 d4 3d cb a5 5d 3d
       -0.2349086 0.04246967 0.103884235 0.05411319
000220 30 3b 4a bc e1 84 c5 3d 6f 2b 07 3e d5 11 52 3d
       -0.012343213 0.09644485 0.13200162 0.051286537
000230 d1 92 7a 3d 82 87 5c 3d 86 5a 4c 3d cb c4 2b 3d
       0.06117517 0.053840168 0.049891017 0.041935723
000240 6f 85 8a bd 04 54 a8 bc 04 36 8c 3d 66 98 64 3d
       -0.06763732 -0.020547874 0.0684624 0.0558094
000250 63 77 15 3e 60 9e 8e 3d 13 cd 37 3d 03 7b 92 bd
       0.14596324 0.069638014 0.04487331 -0.07152369
000260 1d 4e 5c bd 8e df 8d 3d 2e 12 1e 3e 3e d0 86 3d
       -0.053785432 0.06927405 0.15436623 0.06582688
000270 24 15 8b bd 0a 58 8a 3d d4 70 16 3e cd 20 c9 bc
       -0.06791142 0.06755073 0.14691478 -0.024551773
000280 4d 24 42 3d 49 fc 82 3d 41 e6 3f 3c 35 c0 04 bd
       0.0473979 0.06395776 0.011712612 -0.032409865
000290 9b 71 65 bc 4d c6 bd bb 99 b7 33 bb 51 2c 8a bb
       -0.014004136 -0.0057914616 -0.0027422665 -0.0042167087
0002a0 a6 66 a0 3c ce 29 5b ba db 45 db ba de c8 2c 3d
       0.019580197 -0.00083604164 -0.0016729193 0.04218375
0002b0 7f 8a 51 3d 06 a6 86 3c 8e af 22 3d 48 88 0c 3d
       0.05115747 0.016436588 0.039718203 0.034309655
0002c0 f0 27 3e 3c 9a 3e 24 3d 05 3a d2 3c 0d e8 55 3c
       0.0116062015 0.040098764 0.025662431 0.0130558135
0002d0 8a 71 e3 3d 6e 29 8d 3d 6a 05 3d 3d d3 b5 8e 3d
       0.1110564 0.06892668 0.04614774 0.06968274
0002e0 fd 75 65 3d 4e ca 35 3d 5a 4c 20 3d 62 d5 31 3d
       0.056020726 0.044382386 0.039135315 0.04341639
0002f0 c0 33 f0 3c 11 02 bf 3d be 48 12 3e 1c 6f 6a 3e
       0.029321551 0.09326566 0.14285561 0.22893947
000300 90 fd 50 3e ef 57 19 be c0 5d a7 3d ce d5 58 3c
       0.20409226 -0.1497495 0.08172178 0.013234569
000310 c5 f2 c6 3d 83 bb a2 3b 9a 65 b7 3d 93 fa 05 be
       0.09714273 0.004966201 0.08954926 -0.13083868
000320 a5 7f 0b 3e 8a c3 5d 3e 27 6e da 3b 17 43 ca bd
       0.13622911 0.21656623 0.006665963 -0.098760776
000330 86 7a f2 bd a9 ec ed 3b f2 b4 40 3d 2c bc 5a 3d
       -0.11839776 0.007260878 0.047047563 0.05340211
000340 24 ba 72 3d 92 a5 3e 3e 2f 95 49 bb e1 ae b2 3d
       0.05925955 0.18617848 -0.0030759086 0.08724762
000350 6a ae 62 bd b2 68 5c 3e f6 5d df 3d b6 19 92 3c
       -0.055342115 0.21524313 0.109065935 0.017834526
000360 e7 f0 8f 3d 08 39 04 3c 7e 0b 00 bd 85 0d e7 bd
       0.0702837 0.008070238 -0.03126096 -0.112818755
000370 dd 60 17 bd 9d 30 4f bd 51 f7 2a be 1c 27 6e bd
       -0.03695761 -0.05058347 -0.16695906 -0.058142766
000380 c0 f0 c0 bc 78 60 36 be 93 29 13 bd 28 8b 0c be
       -0.023552299 -0.17810237 -0.03592832 -0.13724959
000390 a4 5d 64 be 9c 3b 3b be 5c ed 63 be 42 2e ae bc
       -0.22301346 -0.18284458 -0.22258514 -0.021262292
0003a0 d7 ca 43 3d 68 20 cf 3d ae ae 09 3e 8d d5 9c 3c
       0.047800865 0.10113603 0.13445541 0.019144798
0003b0 1d 75 03 3d 81 d7 ae bd de 9c cc 3d a8 2c 08 be
       0.03209411 -0.08537198 0.099908575 -0.13298285
0003c0 c6 4e d5 bd 25 5f f3 bd 10 e4 3e be cd 58 11 bd
       -0.104154155 -0.11883382 -0.18641686 -0.035485078
0003d0 bb eb 61 3d c2 91 10 3e d4 d2 12 3c bb 7e 7c bd
       0.05515645 0.14118102 0.008961398 -0.061644297
0003e0 cd e3 67 3d d2 b6 17 3e a5 52 51 3d 34 38 82 3d
       0.056613732 0.14815834 0.051104207 0.06358376
0003f0 a2 94 38 3d dc 1b 1b 3e e2 ee 7d bd 1f 8f bc 3d
       0.045063622 0.15147346 -0.061995395 0.09206986

encoder.0.bias f4 [16]
000000 46 9e 04 3d 2e be 1a 3d 49 af 22 3e 25 db 01 3d
       0.032377504 0.037779026 0.15887178 0.031703133
000010 16 95 fb 3d ef 85 a5 b9 16 fe eb bd e0 5c b5 ba
       0.12284295 -0.0003157104 -0.115230724 -0.0013836883
000020 bf 6e b1 3d 64 b3 c3 39 e3 4b c1 b5 f2 12 14 bc
       0.08663701 0.00037326955 -1.4401706e-06 -0.00903772
000030 08 7d 14 3d 7d 80 3a 3e e8 fe 00 3c 1b 86 e7 bd
       0.03625205 0.18213077 0.007873274 -0.113048755

encoder.3.weight f4 [32, 16, 3, 3, 3]
000000 12 93 02 b7 13 de 2e b7 d3 59 17 b7 f5 dd 5b b7
       -7.782846e-06 -1.0422914e-05 -9.021215e-06 -1.3105096e-05
000010 b3 ab bd b7 2f 08 7a b7 76 3b 9b b7 b3 22 d8 b7
       -2.261051e-05 -1.4903067e-05 -1.8505129e-05 -2.5765365e-05
000020 36 af 7f b7 4e d9 bf 37 5c b3 90 37 2d 51 75 b6
       -1.5239979e-05 2.2870165e-05 1.7249658e-05 -3.6555095e-06
000030 36 05 86 37 34 fe 60 b6 5e 1b 86 b5 4f bb af 37
       1.5976471e-05 -3.3526567e-06 -9.991743e-07 2.0948848e-05
000040 55 81 74 36 f6 67 a7 37 b0 c0 bc 37 26 b5 bd 37
       3.6434114e-06 1.9956362e-05 2.2501074e-05 2.261491e-05
000050 8a 55 a3 37 2a 49 9b 37 1f aa b5 37 fa b4 69 37
       1.9470946e-05 1.851151e-05 2.16561e-05 1.3930019e-05
000060 38 3c fc 36 90 39 b1 37 52 43 b1 37 14 56 ef b7
       7.5171956e-06 2.1126849e-05 2.1131393e-05 -2.8531103e-05
000070 98 d0 f7 b7 c2 80 f7 b7 60 41 f3 b7 ed 78 ed b7
       -2.9541829e-05 -2.9504652e-05 -2.89983e-05 -2.8308912e-05
000080 33 8e 00 b8 72 fe 04 b8 0a 05 08 b8 2c a8 ff b7
       -3.065001e-05 -3.1708223e-05 -3.242962e-05 -3.047668e-05
000090 f4 a7 f7 b7 eb 87 04 b8 e1 0a 10 b8 dd 80 f7 b7
       -2.9522904e-05 -3.1597836e-05 -3.4342407e-05 -2.9504701e-05
0000a0 fc ff f6 b7 6a 3d 03 b8 61 72 08 b8 62 4c 06 b8
       -2.9444687e-05 -3.129003e-05 -3.253145e-05 -3.2019227e-05
0000b0 1e 38 04 b8 50 5b 0a b8 58 49 d1 b7 ad a8 e2 b7
       -3.1523516e-05 -3.2986805e-05 -2.4948895e-05 -2.7019845e-05
0000c0 92 48 e4 b7 d6 18 f0 b7 4c 7a fe b7 0b 72 03 b8
       -2.7213511e-05 -2.8621795e-05 -3.0336108e-05 -3.1339045e-05
0000d0 5d 42 ff b7 ed 40 e3 b7 0a 5e 81 bb 8b ea 80 bb
       -3.0429272e-05 -2.7090742e-05 -0.003947978 -0.0039342097
0000e0 ff 34 83 bb b2 aa 83 bb 87 2b 85 bb 65 26 85 bb
       -0.0040041204 -0.004018151 -0.0040640268 -0.004063415
0000f0 cc ef 86 bb 0b 14 86 bb 37 56 86 bb 55 3a 7c bb
       -0.0041179415 -0.004091745 -0.004099633 -0.0038486917
000100 2f 86 7a bb 07 c9 7d bb 76 a9 7f bb da 1b 7d bb
       -0.0038226952 -0.0038724558 -0.0039010919 -0.0038621337
000110 b8 f5 7f bb 61 90 81 bb 65 86 7c bb 59 85 7d bb
       -0.0039056372 -0.003953979 -0.0038532254 -0.0038684218
000120 d0 67 7c bb 01 3f 7d bb d7 56 7d bb c5 5e 7d bb
       -0.0038514026 -0.003864229 -0.0038656497 -0.0038661223
000130 f4 b7 7b bb d3 01 80 bb 2a b7 7b bb 82 67 7a bb
       -0.0038409205 -0.0039064675 -0.0038408735 -0.0038208668
000140 06 65 82 bb 8e ad 51 b7 a6 f3 58 b6 74 5b 4b b7
       -0.003979328 -1.249778e-05 -3.232833e-06 -1.2121036e-05
000150 c8 38 19 b7 bf ed 05 b7 e4 f7 74 b7 64 00 7b b7
       -9.132731e-06 -7.982772e-06 -1.460125e-05 -1.4960857e-05
000160 bc 8c 61 b7 38 bb 5f 36 22 de 49 b7 09 2a 6e 36
       -1.3443812e-05 3.3338565e-06 -1.2032253e-05 3.5489231e-06
000170 70 83 33 b7 80 5b 0b 35 db 0e 30 b7 7d 05 84 36
       -1.0699834e-05 5.1914685e-07 -1.0493876e-05 3.9345455e-06
000180 b0 55 71 b7 f2 cf 53 b7 b4 24 28 b6 81 50 69 37
       -1.438467e-05 -1.2624996e-05 -2.5055315e-06 1.3906626e-05
000190 42 6e 1b b7 0b 80 68 b7 87 0f 8a 37 9e 70 62 b7
       -9.264391e-06 -1.385809e-05 1.6458112e-05 -1.349687e-05
0001a0 1c 24 1e b7 06 8a 4e b5 d0 13 8a b6 ab b2 33 37
       -9.425941e-06 -7.694183e-07 -4.115027e-06 1.0710831e-05
0001b0 6c 60 c7 ba 20 8b c5 ba ca e9 d1 ba ce f7 d2 ba
       -0.0015211231 -0.001507137 -0.0016015109 -0.001609558
0001c0 8a 1a cf ba b7 b2 d9 ba 5c 32 e0 ba ac 5d da ba
       -0.0015800756 -0.0016609047 -0.0017104852 -0.0016659996
0001d0 9b 3b df ba 30 60 a6 ba 93 27 a9 ba bd 19 af ba
       -0.0017031314 -0.0012693461 -0.0012905471 -0.0013359111
0001e0 ff 1e b1 ba 76 fc ae ba 34 b6 b5 ba 4a 20 bc ba
       -0.0013513266 -0.0013350386 -0.0013863505 -0.0014352885
0001f0 0a c3 be ba 3d d9 c1 ba b2 c7 d3 ba e4 f0 cd ba
       -0.0014553976 -0.0014789473 -0.0016157536 -0.001571205
000200 36 c4 d6 ba 14 d5 d9 ba 9f 0f d8 ba 7c 43 db ba
       -0.001638538 -0.0016619288 -0.0016484148 -0.0016728486
000210 80 ac e4 ba 9a 21 e1 ba 95 93 e2 ba 03 a1 81 37
       -0.0017446429 -0.0017176152 -0.0017286415 1.5452975e-05
000220 34 b8 14 37 5a 30 29 b6 70 ea d2 37 8a f1 f6 37
       8.864376e-06 -2.5211107e-06 2.514312e-05 2.943796e-05
000230 1e d2 8b 37 d4 3b 87 38 90 e3 72 38 e9 32 28 38
       1.6667935e-05 6.4484455e-05 5.790923e-05 4.0101735e-05
000240 20 fa 05 36 e0 1d b4 36 71 99 47 36 f4 d1 a5 37
       1.9964136e-06 5.367896e-06 2.9742625e-06 1.97673e-05
000250 31 14 10 37 43 b3 4e 37 52 0d 3a 38 a7 46 38 38
       8.58777e-06 1.2320294e-05 4.435826e-05 4.393482e-05
000260 1c c5 01 38 2a bf 21 34 81 8a 05 36 a3 23 e9 36
       3.093957e-05 1.5063839e-07 1.9899164e-06 6.94809e-06
000270 29 8d 5a 37 32 59 79 37 3a 97 7d 37 dc b7 e5 37
       1.3026679e-05 1.4862324e-05 1.5115185e-05 2.7384544e-05
000280 6c 5d 07 38 ed f5 b3 37 c1 60 a1 37 5e c9 1e 38
       3.2273514e-05 2.1452981e-05 1.923775e-05 3.7857673e-05
000290 c1 af bf b5 cb 46 0e b8 96 ce 16 38 4a df 01 b8
       -1.428176e-06 -3.392137e-05 3.5955185e-05 -3.096395e-05
0002a0 59 e4 2f 38 3f 2e e0 b4 a4 01 21 b7 04 f4 9e 37
       4.1935917e-05 -4.17569e-07 -9.59673e-06 1.8948696e-05
0002b0 c0 f8 45 b7 68 c0 8c b6 bb ae 11 b8 ab 24 c4 b7
       -1.1800032e-05 -4.194724e-06 -3.4733424e-05 -2.3382096e-05
0002c0 d5 99 1b 36 77 81 7a b7 a8 08 4a 37 76 68 9d b6
       2.3186342e-06 -1.4931305e-05 1.2042154e-05 -4.6911255e-06
0002d0 05 20 8a 37 32 a3 5b b7 53 af ff b6 da ed 0d 37
       1.6465792e-05 -1.3091414e-05 -7.6200026e-06 8.459634e-06
0002e0 cd fb 08 38 7d 9d 55 37 e6 05 1d b7 3b 7b 20 b7
       3.2659435e-05 1.2732457e-05 -9.359303e-06 -9.565435e-06
0002f0 a7 07 79 37 0e 8f dc 36 d9 13 d6 36 6d ca 6f 35
       1.4843338e-05 6.5731647e-06 6.3800076e-06 8.9329006e-07
000300 c1 87 41 37 c3 c8 45 37 f3 76 7e 36 1e c3 f4 37
       1.1535304e-05 1.17888585e-05 3.7918187e-06 2.9177925e-05
000310 de 97 c3 37 ef 13 5c 37 35 6c ca 36 19 c3 c0 36
       2.331653e-05 1.3117663e-05 6.032666e-06 5.7447583e-06
000320 43 08 80 36 61 4f fa 36 7e dc b9 36 86 bf 5f 36
       3.815659e-06 7.4598215e-06 5.5390983e-06 3.334107e-06
000330 c6 37 95 37 ae ff 31 37 9a 98 0d 37 06 42 6c 36
       1.7788156e-05 1.0609552e-05 8.439785e-06 3.520517e-06
000340 ec 7c 88 36 5c 9a 41 36 17 3c 70 36 28 d9 8c 36
       4.0676587e-06 2.884909e-06 3.5797764e-06 4.1976054e-06
000350 a5 98 4e 36 ea 53 f9 36 bd af 04 37 1c 44 c1 36
       3.0785243e-06 7.430547e-06 7.90873e-06 5.759777e-06
000360 90 5c b7 b9 ce e0 a4 b9 ac ea c7 b9 aa 0f c0 b9
       -0.00034973444 -0.0003144801 -0.00038131082 -0.00036632764
000370 ed 37 c0 b9 9b f7 c8 b9 25 ca d1 b9 f8 ba d5 b9
       -0.00036662762 -0.00038331453 -0.00040014196 -0.00040765828
000380 ba 18 d6 b9 7e ae 7b b9 fb b7 80 b9 77 3d 91 b9
       -0.00040835683 -0.00024002229 -0.0002455114 -0.0002770235
000390 77 a9 9a b9 df c0 9e b9 0e d7 a1 b9 44 24 b6 b9
       -0.0002949943 -0.0003027981 -0.0003086854 -0.00034740765
0003a0 3a 53 bb b9 33 f3 b9 b9 86 46 a6 b9 83 07 a5 b9
       -0.00035729428 -0.00035467147 -0.0003171453 -0.0003147685
0003b0 81 2e b6 b9 06 83 bc b9 e8 03 bb b9 da 9c bb b9
       -0.00034748393 -0.00035955774 -0.0003567033 -0.00035784283
0003c0 ef 7a d9 b9 05 d0 d8 b9 b4 59 d0 b9 c1 5b 00 37
       -0.00041481058 -0.00041353717 -0.00039739686 7.650758e-06
0003d0 dd 5d 91 36 0a 26 c4 b6 c1 5b b8 37 73 d6 89 37
       4.332264e-06 -5.8456835e-06 2.1977236e-05 1.6431533e-05
0003e0 bf e8 8f 36 63 f4 24 38 87 4c 19 38 12 a8 dc 37
       4.2888273e-06 3.932825e-05 3.6549314e-05 2.6304308e-05
0003f0 a3 81 0d 36 0f ef 32 35 3a f1 8f b6 d3 85 eb 36
       2.1086096e-06 6.6658043e-07 -4.2898146e-06 7.019125e-06

encoder.3.bias f4 [32]
000000 0b 17 7d bc 33 99 94 bc 64 b4 05 bd 0e 67 ba bc
       -0.015447388 -0.018139457 -0.032642737 -0.022754218
000010 ee c9 15 bd f6 fc 16 bc a9 3a 9e bc cd b2 49 bc
       -0.03656953 -0.009215584 -0.01931508 -0.012310696
000020 a3 0b 60 3b af 36 ea bb 9b fe 1b 3d 17 d1 5e 3b
       0.0034186624 -0.007147632 0.038084608 0.003399914
000030 10 d5 a2 bb 6b d8 93 bb a8 0f a1 3c 37 69 91 bc
       -0.0049692467 -0.004511883 0.019660786 -0.017750366
000040 73 9c 7a b1 f5 07 59 3d 4e a2 0c 3d f0 c5 d1 bc
       -3.646872e-09 0.052986104 0.034334473 -0.02560708
000050 95 9b 3d bb c7 83 00 3d e2 cc 74 3b 92 35 99 3a
       -0.0028931845 0.031375673 0.0037353565 0.0011688939
000060 8e 89 de bc 94 2d 35 bc 35 6b 55 bc 37 55 57 3d
       -0.0271652 -0.01105823 -0.013026048 0.0525715
000070 c8 c4 7f 3d f9 da ff 3c b1 a1 93 bb a7 e0 1a 3d
       0.062443525 0.031232344 -0.004505359 0.0378119

encoder.6.weight f4 [64, 32, 3, 3, 3]
000000 50 a2 4b 37 28 c7 67 37 77 f8 8f 37 e8 a5 92 37
       1.2137534e-05 1.3815043e-05 1.7162629e-05 1.7481812e-05
000010 88 55 93 37 21 e9 56 37 af 0f 1b 37 7c 3a 95 37
       1.7563594e-05 1.28096735e-05 9.242372e-06 1.7789418e-05
000020 4a 5a 80 37 64 6c b2 37 b1 76 cf 37 5f f6 dd 37
       1.5300833e-05 2.1269727e-05 2.4731593e-05 2.6459978e-05
000030 39 97 c5 37 f9 ee df 37 0e ba 08 38 6b 1f c4 37
       2.3554649e-05 2.6694952e-05 3.2598204e-05 2.337965e-05
000040 e7 09 dd 37 92 11 ef 37 69 14 a4 37 bf 66 98 37
       2.6349864e-05 2.8499202e-05 1.9559828e-05 1.8167657e-05
000050 d7 8b 94 37 cf 7b 9b 37 c9 56 8c 37 4d 91 92 37
       1.7708093e-05 1.8535093e-05 1.6729713e-05 1.7472217e-05
000060 29 b7 a2 37 03 d0 96 37 96 d6 95 37 13 df 63 3c
       1.9397196e-05 1.7978256e-05 1.7862109e-05 0.0139081655
000070 5b 6b be 3c 51 49 71 3c 19 f0 fa 3a c9 b7 d4 3c
       0.02324455 0.014726953 0.0019145041 0.025966542
000080 1a 7f b2 3c ea 18 a5 3c db 22 d5 3c fe 9a e8 3c
       0.021789122 0.020153482 0.026017597 0.028394219
000090 09 6e ba 3c 29 05 1f bc 3d a2 29 3b 07 0c 8c 3c
       0.022757547 -0.00970582 0.0025884055 0.017095579
0000a0 69 35 15 3d fd 7b d6 bb f1 05 6b bb b7 e5 cf 3c
       0.03642789 -0.0065455423 -0.0035861696 0.025378091
0000b0 14 74 1f bc 70 61 f8 3c 53 f2 37 3d d2 a1 10 3d
       -0.009732265 0.0303199 0.044908833 0.035310574
0000c0 0c d4 1b 3d ef 31 02 3c 4d e6 2d 3d 77 c7 d4 3c
       0.03804402 0.007946475 0.04245596 0.025974018
0000d0 bc dd 66 3c 96 23 17 3c d7 70 b4 b8 d8 1b 0b 3b
       0.0140909515 0.009224793 -8.604087e-05 0.0021226313
0000e0 cd 31 12 3c bc 9a 11 3c e9 6c 01 3c 66 2a cc 3b
       0.008923006 0.008886989 0.007899501 0.00623064
0000f0 f9 be ac 3c a1 01 99 3c 1f 3a 6c 3c cd ce 1a bb
       0.021087157 0.018677535 0.014418154 -0.0023621798
000100 6f 9d 38 bb a9 ec 85 bc 23 87 77 3c a6 63 98 3c
       -0.002817001 -0.0163482 0.015107903 0.018602204
000110 3c 70 65 3b 77 5c a5 3c 6f 5d c4 ba 1b 7b 40 bc
       0.0035009524 0.020185692 -0.0014981459 -0.011748101
000120 93 5f dc 3a 3e 30 a5 3c 65 1f a0 bb a4 47 1d bc
       0.0016813151 0.020164605 -0.004886555 -0.0095996
000130 db be 29 bc f9 c4 5d bc 9b b7 9e 3b 9b fa 2b 3c
       -0.010360445 -0.0135357315 0.004843665 0.010496761
000140 b1 61 a4 bb 86 c4 1d 3d b1 33 8f 3b 96 46 39 3c
       -0.0050165285 0.038517497 0.004370176 0.011308333
000150 99 54 76 bc 3e 4e c8 bb 2c 5d 00 3d 5c a2 d5 3c
       -0.015034818 -0.006112843 0.031338856 0.026078396
000160 0a e2 93 3c ab f5 2b 3c 52 85 14 bc c0 17 40 3d
       0.01805212 0.0104955835 -0.009064989 0.04689765
000170 d8 22 6a 3c 41 0d f5 bb 80 cc 4f bc 8f fc 16 3c
       0.014290534 -0.0074783866 -0.012683034 0.009215488
000180 75 5f f3 3b fe 8b 10 bc 28 4e a6 bc 40 88 a7 bb
       0.007427151 -0.008822439 -0.02030094 -0.005112678
000190 cf cd 6f 3c c8 e5 c7 3b d1 61 83 bc 3c cd 13 3d
       0.014636471 0.00610039 -0.016037853 0.0360844
0001a0 c0 90 c3 3c b0 39 f7 bb da fb a4 3c 2d c7 fb bb
       0.023872733 -0.0075447187 0.020139623 -0.0076836557
0001b0 f1 a3 ab 3b dd 91 48 3c 70 e5 46 3b 88 93 89 bc
       0.005238049 0.012241808 0.0030349158 -0.016793981
0001c0 17 e4 9a ba 9f 47 3b 3b c3 5f 38 b9 5a 54 80 3b
       -0.0011817244 0.0028576625 -0.00017583281 0.0039163055
0001d0 07 b9 28 bb 77 a2 17 3c 94 f7 84 bc 40 e6 90 3c
       -0.002574505 0.009255043 -0.016231336 0.017687917
0001e0 06 b7 3f 3c 03 eb 8d 3c fb 78 19 3c 1a 53 6e b7
       0.011701351 0.017323976 0.009367223 -1.4205254e-05
0001f0 29 98 b4 3b 89 97 e9 ba 2f cd d8 3c c2 c9 1b 3c
       0.005511303 -0.001782165 0.026465027 0.009508552
000200 17 f9 f0 3c 2a 27 fc bb a4 c3 dc ba 60 56 af 3c
       0.02941565 -0.0076950984 -0.0016842973 0.021403491
000210 2c 9b 17 3c 74 0e 91 3c 3a 29 03 3c a0 0b 3a 22
       0.009253304 0.017707087 0.008005435 2.5213855e-18
000220 71 67 b9 a3 08 bf 8e a3 dd 12 46 23 6f a2 d1 a2
       -2.010155e-17 -1.5476576e-17 1.0737596e-17 -5.6821547e-18
000230 00 d4 50 a2 02 fa a7 23 93 33 54 a3 e0 d7 76 23
       -2.8301488e-18 1.8212059e-17 -1.1503464e-17 1.33814e-17
000240 ba 2a 9f 23 ef 5a 32 a4 f1 41 95 a2 a4 3b a8 22
       1.725691e-17 -3.867462e-17 -4.045635e-18 4.559964e-18
000250 6b 79 20 22 9e 24 98 a2 3f ba 4b a3 d5 c8 32 a4
       2.1748322e-18 -4.1238453e-18 -1.1044091e-17 -3.876771e-17
000260 66 cd 55 a3 e0 07 19 23 26 d6 34 a4 06 87 0d a4
       -1.1590248e-17 8.295814e-18 -3.921267e-17 -3.068887e-17
000270 30 9b cf a3 6b 70 47 23 72 02 31 24 98 a0 a8 23
       -2.250871e-17 1.0811617e-17 3.8382828e-17 1.828261e-17
000280 1e 7e 0f a3 fe 9a 99 23 77 f7 30 3c 96 d2 16 3d
       -7.778752e-18 1.6653935e-17 0.010801188 0.036821924
000290 a4 01 b3 3c 82 c2 ce 3c 8b 7b 39 3d bb 39 57 bc
       0.021851368 0.025239233 0.045283835 -0.013136323
0002a0 3d 13 17 3d ef 42 da 3c 65 2e 83 3c 56 10 f3 3c
       0.03688358 0.026643245 0.016013334 0.029670876
0002b0 b1 36 17 3d 3e 5d 22 3d ce 1c c7 3c 4f ea e3 3c
       0.036917392 0.039639704 0.024305727 0.027821688
0002c0 e2 84 15 3b f9 83 1d 3d 31 9f 44 3c 49 50 88 bc
       0.00228148 0.038455937 0.012000845 -0.016639845
0002d0 bf 90 27 3c ff d4 45 bc ec 61 22 3d a2 8b d1 3c
       0.010227381 -0.012074708 0.039644167 0.025579277
0002e0 b9 97 ef 3c 3e f3 19 3d fa 48 18 3d 1a a0 05 3d
       0.029247152 0.03758549 0.03717897 0.032623388
0002f0 48 07 3b bb 3d e6 f0 a3 3a 28 8f 23 23 04 e7 23
       -0.0028538276 -2.6118362e-17 1.5521128e-17 2.5046822e-17
000300 8c 96 99 23 f1 b9 45 23 e4 62 2b 22 27 95 78 23
       1.6652052e-17 1.0718766e-17 2.3227174e-18 1.3475691e-17
000310 c5 9d 10 a4 00 95 c8 23 ad 23 b4 a2 f4 f0 96 a3
       -3.135866e-17 2.1747147e-17 -4.882687e-18 -1.636508e-17
000320 e4 4e 27 23 ff fe ed 23 b6 8b 6d a3 13 89 b0 24
       9.069794e-18 2.5803587e-17 -1.2877381e-17 7.6560046e-17
000330 6d 97 cd a3 14 81 3c a4 a7 37 9c 23 cb 95 95 23
       -2.2290276e-17 -4.0875335e-17 1.6937124e-17 1.6218052e-17
000340 c4 d8 19 24 d7 2a 3d 23 35 92 ce a3 09 e4 f2 22
       3.3360194e-17 1.0254782e-17 -2.2396486e-17 6.5835673e-18
000350 c5 46 7e a3 60 e1 18 22 b2 1d 89 a3 05 ab ad 23
       -1.3784354e-17 2.0719154e-18 -1.4866146e-17 1.8829127e-17
000360 a7 76 9b bb 64 2b 10 bc 69 1d 1c 3b 20 fc 49 bc
       -0.004744369 -0.008799408 0.002382124 -0.012328178
000370 21 a3 d9 3c 27 87 26 3d 88 58 f8 3c 94 38 f2 3c
       0.026567044 0.040656235 0.030315652 0.029567994
000380 60 91 8c 3c 5f 6b 05 3d c3 fc 9a bc 3d 58 57 bc
       0.017159164 0.0325731 -0.018919354 -0.013143596
000390 fb b4 0a 3c 47 2c e7 3b d8 9f c2 3c 3a 6b 3a 3c
       0.008466001 0.007054839 0.02375786 0.011378104
0003a0 25 ed a2 3c c9 c5 1b 3d 1e 18 df bb 67 7e 14 3d
       0.01988847 0.03803042 -0.006808295 0.03625336
0003b0 1b 74 29 3d 4f 89 87 ba 30 55 89 bc f3 63 09 3d
       0.041370492 -0.0010340604 -0.016764253 0.033542585
0003c0 8a 7d 47 bc 20 79 ca bb 32 ee 07 3d 70 7d 2b bb
       -0.012175927 -0.00617899 0.033186145 -0.0026167296
0003d0 94 cd 86 3b 01 68 f4 bb 8c da cf 3b ee 65 88 3b
       0.0041138623 -0.0074586873 0.0063431915 0.0041625416
0003e0 de f0 95 3b 02 3c c8 3c 64 4f 3e 3c 55 d9 5b 3c
       0.0045758327 0.024442676 0.011615608 0.013418515
0003f0 23 a1 08 bd 91 37 c5 bc 46 d1 11 bd fc 85 29 bb
       -0.033356797 -0.024074348 -0.03559997 -0.0025867214

encoder.6.bias f4 [64]
000000 50 33 52 3d 6f c1 fa 3b 10 67 a1 3c 48 ae 01 3c
       0.051318467 0.0076524536 0.019702464 0.007915087
000010 6f b7 5c 3c 1a 09 ff 3c 24 37 1b bc a8 59 a6 3c
       0.013471468 0.03113227 -0.009473596 0.020306423
000020 04 97 68 3d 19 ee 60 3c 97 98 1e 3d 8c d8 ac bc
       0.056784645 0.013728642 0.03871974 -0.021099351
000030 50 ec 61 3d 3f dc a7 bb 17 4f 2f 3d 31 5d ff b6
       0.055157006 -0.005122691 0.042800035 -7.610441e-06
000040 14 6a 7c bb b0 58 c0 3c 6b f6 f3 3c 64 12 ca bb
       -0.0038515376 0.02347979 0.029780587 -0.006166743
000050 3d 14 7c bc 29 db 16 3b ca 6c b6 3c 68 2c 78 bc
       -0.015385685 0.0023018813 0.022268672 -0.015147306
000060 4c ba b1 3c 93 c0 b2 bc 42 cf b9 bc 74 b1 eb ba
       0.021695279 -0.021820342 -0.022681836 -0.0017981962
000070 47 8c 5f ba 78 18 1b 3b 2a 67 82 3d f0 32 26 3c
       -0.0008527678 0.0023665708 0.06367333 0.01014398
000080 bf 6e 5b bc c9 a0 1d 3d cb 4d 7e 3d 2d f5 c7 b0
       -0.013393103 0.038483415 0.062085908 -1.4548839e-09
000090 40 05 22 3d f6 c1 7d 3d 64 35 aa bc 37 b0 8c 3c
       0.039555788 0.061952554 -0.020777412 0.01717387
0000a0 37 ed ce 3c c6 74 e0 bc de 4c ad 3c ad eb 15 3d
       0.025259597 -0.027399432 0.021154817 0.03660171
0000b0 26 00 99 3c 09 fb 56 3d 6c d8 73 3d 85 21 5c bc
       0.018676829 0.0524855 0.059532568 -0.013435726
0000c0 c4 43 ea bb 2b c2 10 3c 8e 69 a4 bc f7 7e 42 3d
       -0.0071491916 0.008835356 -0.020069864 0.047484364
0000d0 da 4f f5 bb ce f9 b8 38 97 8c d5 bc d8 7c 44 bc
       -0.0074863257 8.8203335e-05 -0.026068015 -0.011992656
0000e0 94 70 50 3d 71 9f 52 3d c8 36 73 3d f5 7e 24 3c
       0.050888613 0.051421586 0.059378415 0.010040035
0000f0 ce 33 8a bc 6f 20 7a 3d 85 e8 12 b7 2d 37 62 3d
       -0.016870406 0.061066087 -8.756416e-06 0.0552284

decoder.0.weight f4 [32, 64, 3, 3]
000000 1d 89 dc bc d7 9a 81 3c a4 31 d7 3b 14 63 92 bc
       -0.02692085 0.015820904 0.006567197 -0.01786951
000010 26 c9 1d 3d 64 5f 62 bc 2a 4e 92 3b a1 ae a1 bc
       0.03852191 -0.013816688 0.0044648843 -0.01973659
000020 3a fd 12 bb 22 64 e3 bb de e9 ee 3c 33 ce 39 3c
       -0.0022428767 -0.006939427 0.029164251 0.011340666
000030 b0 fe 81 3c 6d 65 18 3d 48 42 a7 bc 85 fb e0 3c
       0.015868515 0.037206102 -0.020417348 0.027463684
000040 7f 5d d6 bc b4 fd 8f bb cf a8 e4 bc 3e 78 6b bc
       -0.02616763 -0.0043942574 -0.027912525 -0.01437193
000050 2b 1f 1a bd bc e9 ff bc 4a d5 09 bd 6f 33 38 bd
       -0.03762738 -0.031239383 -0.033650674 -0.044970926
000060 b0 4a 07 bd 71 58 0e bd 4c e1 19 bd 18 b1 01 3d
       -0.033030212 -0.034752313 -0.037568375 0.03166303
000070 1a dc 96 3c 46 b2 08 3d 35 01 86 3b 6a da 07 3d
       0.0184155 0.03337314 0.0040894994 0.03316728
000080 06 60 3c 3d a6 75 fd 3b 96 ad a2 ba b2 84 bb 3c
       0.045990013 0.007734972 -0.0012411352 0.022890422
000090 9f 44 e0 37 9f bb 9a 37 f2 d7 2b 36 11 69 a6 37
       2.6734835e-05 1.8445598e-05 2.5606682e-06 1.9837667e-05
0000a0 5a fb 5d 37 ee 7e b4 35 8e 01 72 37 a8 ac 2a 37
       1.3231149e-05 1.3447986e-06 1.4424686e-05 1.0172989e-05
0000b0 d3 0b d6 35 b6 fa 41 bc cc 13 14 3b 9b dc 3b 3d
       1.5947684e-06 -0.011839559 0.0022594808 0.045864683
0000c0 ad d4 3c bc 51 2a 39 3d be 96 09 3d 49 77 01 bb
       -0.011525315 0.04520637 0.033591025 -0.0019754937
0000d0 17 54 fa 3c 48 6a 86 3c fa c0 92 bb 60 07 8e bb
       0.030557675 0.0164081 -0.004478571 -0.0043343753
0000e0 ee 25 91 bb 64 30 8e bb 1e 8b 8a bb 4e 7e 8c bb
       -0.0044295704 -0.0043392647 -0.00422801 -0.0042875176
0000f0 a2 3c 93 bb d2 d0 8f bb 5b c6 93 bb dd 5c 56 3d
       -0.004493312 -0.004388907 -0.00450973 0.052334655
000100 e5 38 65 3d 96 fc 47 3d 81 8a 4a 3d ea 2f da 39
       0.055962462 0.04882487 0.049448494 0.000416159
000110 c8 38 ef 3c ba 44 1e bc 65 c4 4c 3d 47 f0 4c 3d
       0.02920188 -0.00965994 0.049991984 0.050033834
000120 ef 34 31 3d ca 3f 18 3d f0 9f 1a 3d a0 33 4b 3c
       0.043263372 0.03717021 0.037750185 0.012402445
000130 28 ac 00 3d a9 3b d0 bc a6 4b 10 3d a6 35 52 3d
       0.03141418 -0.025419073 0.035228394 0.051320694
000140 5f 6c 93 3c 2d 39 d6 3c ab 27 00 3d 1c 9e b4 3c
       0.017996011 0.02615031 0.03128783 0.022048049
000150 eb 1c 04 bb 6b 19 1c 3d 69 51 05 3c 88 e6 96 bc
       -0.0020158838 0.038110178 0.0081370855 -0.018420473
000160 07 a7 3c 3b 30 e5 2d 3c a1 31 01 3b 45 ab 3f 3d
       0.002878608 0.010613725 0.001971342 0.046794195
000170 13 2a 0b bc db b2 7d ba ea c7 4e 3c c5 a3 33 3b
       -0.008493918 -0.00096778356 0.012620905 0.0027410847
000180 45 0e b9 3b ca 46 b6 3b c7 85 b0 bc d6 30 b3 bb
       0.005647453 0.005562638 -0.021548165 -0.005468468
000190 26 1d 77 bb e8 4d a7 bb d0 29 30 ba d5 3a 38 ba
       -0.0037706583 -0.0051057227 -0.0006720098 -0.00070278096
0001a0 8d 31 ab bb ae 5b b4 bb 27 e6 08 bb 5a 6f a8 bb
       -0.005224413 -0.005504093 -0.0020889135 -0.0051402273
0001b0 80 72 ed ba df 49 ee 3c ed 1c ab 3c 15 e2 a1 3a
       -0.0018115789 0.029087959 0.020887816 0.0012350703
0001c0 9c 89 81 bb 08 40 41 bc 98 fb 22 3d e5 06 46 3d
       -0.003953172 -0.011795051 0.03979072 0.04834642
0001d0 dd c7 ed 3c ee 90 2a 3b e0 65 5e 3a 6e 8d 87 ba
       0.029025966 0.0026026326 0.00084838085 -0.0010341832
0001e0 c0 c0 c8 ba 5a ea 50 3a 4b d8 12 bb 9d e0 ab 39
       -0.0015316233 0.00079694914 -0.0022406753 0.00032783012
0001f0 f2 3e 70 ba cc ac b7 ba af e9 08 3d be e3 c5 bc
       -0.0009164653 -0.001401329 0.033425983 -0.024156447
000200 ba 46 28 3d 11 b4 4b 3d cc f2 aa 3a 1f 6b 7d bc
       0.041083075 0.04973227 0.001304233 -0.015467434
000210 cd c6 7d 3c 7d e5 7e bc 99 70 cb bb 40 ac 40 b6
       0.015489292 -0.015557644 -0.006208491 -2.8710492e-06
000220 41 96 3e b6 16 b3 4e b6 4d 59 b9 b6 08 7c 71 b6
       -2.8399666e-06 -3.0800634e-06 -5.5238256e-06 -3.5983994e-06
000230 41 38 6d b6 7d 08 51 b6 05 d1 d1 b6 1e 47 99 b6
       -3.5348496e-06 -3.1148368e-06 -6.2530185e-06 -4.5680345e-06
000240 8d bb c2 35 7d 69 91 36 d3 ab cd 37 35 3b 9e 35
       1.4508711e-06 4.333617e-06 2.4517916e-05 1.1789149e-06
000250 0e 55 ac b7 b2 67 0a 38 f3 00 90 36 1e 63 8b 37
       -2.0543604e-05 3.2998338e-05 4.291645e-06 1.6616246e-05
000260 2e 8e 13 37 9b 52 35 3b a4 05 62 3b e9 a7 b1 bc
       8.794987e-06 0.0027667645 0.0034488225 -0.021686511
000270 35 e3 0c bc a3 82 35 bc 5e b8 e7 bb 62 bd 45 bb
       -0.008599092 -0.0110785095 -0.007071539 -0.0030172695
000280 0d c3 06 39 3b 54 0e 3c dc 4c cf bc 47 93 b0 3c
       0.00012851898 0.008687074 -0.025305204 0.021554602
000290 63 1c 10 3d bc b7 f7 3c b9 16 c7 3c d8 d6 35 bb
       0.03518332 0.030238979 0.024302827 -0.0027746465
0002a0 85 a2 9b ba 62 83 c7 3c 84 eb 25 3d 95 5f 9c 3c
       -0.0011873996 0.02435464 0.04050781 0.019088546
0002b0 e3 88 03 3c 11 e1 ce 3c 68 23 dc bc 81 f0 0d 3c
       0.008028242 0.025253804 -0.026872352 0.008663298
0002c0 59 1e f2 3b c0 98 6f bc f7 87 08 3b dd d1 1e 3d
       0.0073888716 -0.014623821 0.0020832994 0.03877436
0002d0 da a6 9d bd 6b e9 f0 bd 37 85 a2 bd d0 de 4d bd
       -0.0769784 -0.11763271 -0.07935565 -0.05026132
0002e0 b1 c5 1b bd fd c0 14 3d 27 a5 21 bd 42 ce dc bc
       -0.03803033 0.03631686 -0.039464142 -0.02695382
0002f0 f5 31 57 3d 03 fb ca 3c 6a d3 c3 bc 38 d6 b9 bc
       0.052537877 0.024777895 -0.023904521 -0.022685155
000300 7a a4 e5 3c 5c fe 9c bc 69 f7 db 3c 18 52 82 bc
       0.02803253 -0.019164257 0.026851373 -0.015908286
000310 98 9a d4 bc c0 cd d0 bc da 60 4d bc 5b 39 9f 3b
       -0.025952622 -0.025488734 -0.012535298 0.004859132
000320 4a c0 81 3c 18 33 63 3d 2b 8d 32 3d 72 90 17 3d
       0.01583876 0.05546865 0.04359166 0.03700299
000330 27 84 89 bc f3 1f 54 3d c4 c5 18 3d 99 32 d4 3c
       -0.016786648 0.05178828 0.03729798 0.025903033
000340 3e 78 a2 bb 36 a7 a0 3c b3 16 21 3d d2 f3 28 3c
       -0.0049581816 0.019610982 0.03932829 0.010312038
000350 80 8d d3 bb dc 76 01 3c bb 72 d3 bb 10 14 8b 3c
       -0.006456077 0.007901873 -0.006452886 0.01697734
000360 7a 94 0d 3c 94 b1 07 3d 8e 02 96 3c df c1 c5 3c
       0.008641357 0.033128336 0.018311765 0.024140297
000370 ae f5 01 3d 0b 2f a0 3b 09 78 dc 3b 13 07 b0 bc
       0.03172844 0.0048884205 0.0067281765 -0.021487748
000380 a1 5f c5 3c 05 5c 32 3b 3e 33 8c bc 04 6d 5c bc
       0.024093451 0.0027215492 -0.017114278 -0.013453726
000390 55 c5 a9 bc eb 32 61 3c c3 82 c5 3b 97 a7 d3 bb
       -0.020723978 0.01374505 0.006027551 -0.0064591873
0003a0 88 e4 5b 3c 44 9c 3e bc 06 78 91 b9 57 71 4d 3b
       0.013421185 -0.011633936 -0.0002774598 0.0031348073
0003b0 86 c0 13 3a 40 1d f3 3a 9a 48 de 3a 47 23 87 3a
       0.0005636293 0.0018548146 0.0016958893 0.0010310196
0003c0 f7 ef b4 3a 33 19 2c b9 46 9e 3c 3b c4 84 c4 3b
       0.0013804425 -0.00016412586 0.0028780862 0.005997272
0003d0 4b 32 1c 3d 66 d7 c8 3c 0d cb 4b 3d 2c 6d e5 bb
       0.0381339 0.024516772 0.04975419 -0.0070015397
0003e0 fa d5 67 3c d0 79 40 3c 29 26 42 3b e4 6f f6 bc
       0.014150137 0.011747792 0.0029624796 -0.03008265
0003f0 7f 17 5b bd 51 cf 63 bc 59 24 a6 bc db f2 4b bd
       -0.053489204 -0.013904409 -0.020281004 -0.049792152

decoder.0.bias f4 [32]
000000 5c b4 23 3d a6 7c 15 3d 68 2c 55 3d 81 33 3e 3d
       0.039966926 0.036495827 0.052044302 0.046435837
000010 0e e9 0c 3d 23 a6 1d ba 91 bc 17 bd d7 05 1a 3c
       0.034401946 -0.0006013831 -0.037045065 0.009400806
000020 c8 91 b0 3b 91 01 7b ba 35 90 3b 3d e1 a1 4c 3d
       0.005388472 -0.00095751235 0.045791823 0.049959067
000030 d7 2c b9 3c 69 95 9e 3c e1 e2 75 b7 63 7e f9 bb
       0.02260439 0.019358354 -1.4655962e-05 -0.0076139434
000040 a7 ae bf bb 4e 13 48 3d c4 98 e6 bb b5 41 2e 3d
       -0.0058496776 0.048846535 -0.007037254 0.04254313
000050 bd 9d 2b bc ea 48 3d bd 30 87 0c 3d cf 2b 0b 3d
       -0.010474619 -0.046212114 0.034308612 0.033977326
000060 45 31 6c bc 6b ae 0d 3d ac 5c 15 3d 0e 11 2b 3c
       -0.014416044 0.034590166 0.036465332 0.010441078
000070 c5 8c 00 3d 11 65 08 bc cb de 3a 3d 2b ac 7e 3c
       0.03138425 -0.008324877 0.04562263 0.015543978

decoder.3.weight f4 [16, 32, 3, 3]
000000 2a 27 1e 3d 69 4d 1c bd 33 33 5d 3d fb 17 21 3d
       0.03861157 -0.03815976 0.054003906 0.03932951
000010 0d 52 d3 bc 8a 79 d6 3c 44 ac 1d 3d 66 75 10 3d
       -0.02579596 0.026181001 0.038494363 0.03526821
000020 e5 9e 4a bd 5b 3d 8e 3d 25 dd ee 3d df d0 fb 3d
       -0.04946794 0.069452964 0.11663274 0.122956984
000030 d1 3c 90 3d 93 f5 e7 3d 05 ab f2 3d 63 dc 32 bc
       0.0704285 0.113261364 0.11849026 -0.010916802
000040 6a 48 60 3d de 0e 79 3d 50 bd 52 3d 3a b8 a5 3b
       0.05475656 0.060805194 0.051450074 0.005057362
000050 58 f7 1d 3d 8e ee 7e bb 18 f8 eb bc d7 f2 bc bc
       0.038565964 -0.0038899514 -0.028804824 -0.023065014
000060 38 f1 4b bc f8 d0 9f 3c 29 68 36 3d 48 1d 87 bc
       -0.012447648 0.019508824 0.04453293 -0.016493455
000070 ae 06 ce 3c e4 c6 c9 3c 68 b5 00 3c 14 20 49 bc
       0.02514967 0.024630971 0.007855751 -0.012275714
000080 04 0c 60 3d fd bf 25 bd bc 28 69 bc fd b8 6c bb
       0.05469896 -0.040466297 -0.014230903 -0.0036121004
000090 24 4e 8f bd 85 c2 24 3d 2a e5 28 3d 1e 92 71 3b
       -0.06997326 0.04022457 0.041234173 0.0036860774
0000a0 32 2f 81 3b 44 44 b3 bb 8f 52 8a 3b c0 b5 0b bd
       0.0039423937 -0.0054707844 0.0042212675 -0.034108877
0000b0 f0 f6 00 3d fb f2 8a a6 54 53 25 27 66 80 87 27
       0.031485498 -9.641534e-16 2.2943522e-15 3.7609237e-15
0000c0 2e 71 49 a6 5e 7f 63 26 14 9b 45 27 77 a6 70 a5
       -6.988927e-16 7.892906e-16 2.742331e-15 -2.0873082e-16
0000d0 5b f8 78 26 5c f4 16 a7 cb 44 8f bb 2c 25 19 bc
       8.637887e-16 -2.094915e-15 -0.0043722144 -0.009347241
0000e0 3c 3c c2 bc 43 5a 0b bd 64 f7 c0 bc bb 67 d1 bc
       -0.023710363 -0.034021627 -0.023555465 -0.025562158
0000f0 39 23 39 bd 95 08 fc bc b5 a2 f3 bc 72 cd eb ad
       -0.045199607 -0.030765811 -0.02974067 -2.6807643e-11
000100 c3 e0 49 2e 9d b6 f3 ad e6 fa c4 2e bf f5 02 2f
       4.5901737e-11 -2.7706998e-11 8.9576166e-11 1.1910738e-10
000110 1c 16 df 2d 95 4a 85 2f 6a a4 19 ae fd 1c 03 ae
       2.5361983e-11 2.4245553e-10 -3.49342e-11 -2.9811698e-11
000120 a5 0a 94 bc 7a b0 45 bd 63 ef ed 3b 56 a5 12 3d
       -0.018071482 -0.048264004 0.007261203 0.035802208
000130 94 f3 2e 3d d1 fe 71 3d 57 fb 69 3c 3c 9b c5 3c
       0.042712763 0.059080902 0.0142811155 0.024121873
000140 01 db 92 3b 43 00 b6 3d 90 d0 fa 3d 24 0d 3a 3e
       0.0044816737 0.08886769 0.122468114 0.18169075
000150 a1 53 50 3d a7 97 b2 3d e2 74 d6 3d 4d 5a 8d 3d
       0.050861005 0.08720332 0.104715124 0.06901989
000160 ae 9a cf 3d 8e 85 f6 3d 0f 90 97 bc 1b be 6c 3b
       0.10136925 0.12037192 -0.01850131 0.0036124054
000170 06 28 82 3b c4 14 bd bc e6 ca 2d bb 02 bc c1 b9
       0.0039720563 -0.02308119 -0.0026518642 -0.00036951905
000180 85 bf 17 bd a9 73 42 bc c5 26 83 bc 5a 7d a2 bc
       -0.03704788 -0.011868396 -0.016009698 -0.019835163
000190 12 5a ea bb 9b 98 54 3c 56 9d 41 3c 58 64 db bc
       -0.0071518505 0.012975837 0.011817297 -0.026781246
0001a0 f3 2e 19 3c f2 a1 9a bc 6e fa 4d 3a 27 4c 91 3c
       0.0093495725 -0.01887605 0.00078574463 0.017736508
0001b0 26 7f 32 39 84 dd be 38 4d a0 6a b7 43 8a 0c 39
       0.0001702277 9.1011665e-05 -1.398481e-05 0.00013402947
0001c0 81 16 a5 38 c3 97 eb b6 ea 6b 0f 39 eb 06 91 38
       7.872005e-05 -7.021213e-06 0.00013677744 6.9154274e-05
0001d0 87 d8 3c 37 99 ac 65 3d ce 81 85 3d d7 87 91 3d
       1.1256087e-05 0.056072805 0.06518899 0.071059875
0001e0 7f f1 1a 3d 30 a0 55 3d 5c 6f 7b 3d 5d 03 18 3d
       0.037827965 0.05215472 0.061385497 0.037112582
0001f0 73 fd 86 3d 9b a9 98 3d 82 4c 8b bb 73 24 88 bb
       0.0659131 0.07454225 -0.004251064 -0.0041547357
000200 ef ef ac bb d2 54 86 bb c7 f6 b0 bb e5 fc 82 bb
       -0.0052776258 -0.004099467 -0.005400512 -0.0039974325
000210 6e c7 8c bb 5e a5 63 bb aa e1 8e bb b1 db ff bc
       -0.004296235 -0.0034736018 -0.0043603973 -0.031232687
000220 08 16 28 bd 77 93 10 bd ca 72 78 bd 93 e4 47 bd
       -0.041036636 -0.035296883 -0.060656346 -0.04880197
000230 a4 d1 28 bd b7 e9 a2 bd 9a 90 4a bd 19 73 8d bd
       -0.041215554 -0.07954734 -0.04945431 -0.06906719
000240 c6 6a 11 25 9e a8 5d 23 ba 0e 1c 23 82 ca f7 a4
       1.2612921e-16 1.201614e-17 8.4598954e-18 -1.07462236e-16
000250 c3 61 9b a3 24 f6 15 a3 76 85 63 23 93 2d ec 22
       -1.6846537e-17 -8.1294285e-18 1.2333956e-17 6.401618e-18
000260 e6 6c 1b 23 8c e9 87 bc a1 64 c1 3c ed cf 3a 3d
       8.425627e-18 -0.016590856 0.023607554 0.04560845
000270 9e d0 08 3c f3 56 00 bd 99 d2 0b 3d 4f 05 06 bd
       0.008350519 -0.03133292 0.03413639 -0.032719906
000280 56 44 42 3d 8e 35 2d 3b e8 72 82 a3 a4 82 32 a4
       0.04742845 0.0026429626 -1.4143293e-17 -3.8708254e-17
000290 89 8f 8e 24 28 29 bf 23 3c ae 58 25 f5 15 3e 23
       6.182584e-17 2.0725692e-17 1.8794046e-16 1.030457e-17
0002a0 4a 3e 15 24 e8 6b c1 21 e5 21 79 24 b2 8d 30 3b
       3.2361986e-17 1.3106751e-18 5.4021978e-17 0.0026939926
0002b0 72 80 c9 3c 33 60 bb 3c 90 f7 70 3c 32 6d 0e 3d
       0.02459738 0.02287302 0.014707461 0.034772106
0002c0 22 58 83 3d fb 68 38 bd 21 5e 0f bd b0 16 5f 3c
       0.064132944 -0.045021992 -0.035001878 0.013616249
0002d0 5d 2e 74 a8 8f 1c 0a 2b 92 5b 54 2b 5e 7c 26 29
       -1.3554774e-14 4.906708e-13 7.544461e-13 3.6967276e-14
0002e0 01 e3 0a 2c 31 56 88 2b fb a5 d0 a7 ae 27 56 2b
       1.9736992e-12 9.687304e-13 -5.7911554e-15 7.608314e-13
0002f0 a0 ae 85 ad eb 6c 54 bd 05 53 84 bc 61 91 ba 3c
       -1.5197898e-11 -0.051861685 -0.016152868 0.0227744
000300 e4 52 2b bc 89 16 5d bd c3 81 7f bd 0f 92 7b bc
       -0.010456774 -0.05397657 -0.06237961 -0.015354647
000310 e8 fa 27 bd 90 7c 45 bd 4f f7 a2 bc 51 f6 09 bd
       -0.041010767 -0.048214495 -0.019893317 -0.03368217
000320 63 0d 0b bd 8a 37 a8 bc 0d ef 93 bc 0e bb b0 3a
       -0.033948313 -0.020534296 -0.018058324 0.0013483481
000330 37 49 8e bc 63 11 66 bc cc d3 5e bc 34 72 40 3c
       -0.017368896 -0.014042231 -0.013600301 0.011745978
000340 83 6c 0e 3d d5 ee ac 3b 1b e8 e2 b9 63 25 e4 3b
       0.034771454 0.0052774944 -0.0004327901 0.0069624647
000350 bb 34 db 3b 6e 8a 0b 3d 19 f6 2f bd 34 f5 4e 3c
       0.0066896356 0.034067564 -0.042959306 0.012631703
000360 f7 25 7c bc 6c d3 7a bc 6b ac 7b bc 82 d4 78 bc
       -0.015389911 -0.015309196 -0.015360932 -0.015187385
000370 69 3a 78 bc d9 c0 79 bc ff 04 75 bc c3 d1 74 bc
       -0.015150645 -0.015243732 -0.014954804 -0.014942589
000380 35 b9 76 bc cf 0e 2d 3b 22 18 01 3c 3e 61 58 3d
       -0.015058805 0.0026406532 0.007879289 0.052827112
000390 32 34 94 bc dc 85 87 b9 93 4e 8a 3c 4d 05 cd 3b
       -0.018091295 -0.0002584894 0.01688317 0.0062567354
0003a0 96 e3 c9 bc 7d 47 47 3d ab e1 9e 3c 1c 3f f2 bc
       -0.024644654 0.04865216 0.019394716 -0.029571109
0003b0 12 9c 57 3c 59 19 f4 3b 71 3b 41 bd 87 54 28 bc
       0.013159769 0.0074493107 -0.04717583 -0.010274059
0003c0 1f 5b f8 bc cd 16 3d bc 0a 8f 0c bc b3 ef aa 3c
       -0.030316887 -0.011541081 -0.008579025 0.02086625
0003d0 a6 cd 4b bb 52 f0 a0 bc 3a 00 10 3c a6 bf 10 bd
       -0.0031097918 -0.019645844 0.0087891165 -0.03533902
0003e0 f7 80 2d 3d d1 a0 8a bc 4d 7e 07 bd 09 e5 57 3b
       0.04235932 -0.016922386 -0.033079434 0.0032942912
0003f0 b6 a2 ce 39 2a d2 ca 39 57 00 13 39 53 4c 66 3a
       0.0003941261 0.00038685027 0.00014019139 0.0008785177

decoder.3.bias f4 [16]
000000 e2 cb 0c bd b1 68 68 3d a4 8e c1 3c c3 0e bf bc
       -0.034374125 0.056740467 0.023627587 -0.023322469
000010 96 f3 53 b5 95 13 93 bc fd 9a 32 bb e4 13 2c bd
       -7.895809e-07 -0.017953673 -0.0027253025 -0.042011157
000020 fb 02 ef 3c 7b 0e 2d bc b1 04 87 3c f6 d3 15 3d
       0.029176226 -0.010562534 0.01648173 0.036579095
000030 d2 24 ce 3c 16 2d 01 bc 9e bc 54 3c b7 4a e6 3c
       0.025164042 -0.0078842845 0.012984423 0.028111799

decoder.6.weight f4 [1, 16, 1, 1]
000000 ce 88 66 be f7 5f a1 bd 30 14 83 be 1a 0c d9 39
       -0.22513124 -0.07879632 -0.2560134 0.00041398482
000010 b6 84 3f 35 bf a6 15 be 74 12 0b 3d 61 f7 2f be
       7.1346165e-07 -0.1461439 0.033953145 -0.17184211
000020 c5 ed ac 3d a1 29 52 3e 50 56 28 be c3 a8 4c be
       0.084437884 0.20523693 -0.16439176 -0.19986252
000030 d9 3d 6e be 6f a9 c2 bd ec 51 07 3e 98 7a 84 bb
       -0.2326578 -0.09504973 0.13214844 -0.0040429346
