Output/model1_3dcnn.pth (torch, 376345 bytes, 11 tensors)

encoder.0.weight f4 [16, 1, 3, 3, 3]
000000 74 b9 f2 bc 05 7f 23 be ed 3d 30 3c b8 e8 4b 3c
       -0.029629447 -0.15966423 0.010756952 0.012445621
000010 41 19 1b be 73 f4 a6 bd be b3 21 be 64 03 0e bb
       -0.15146352 -0.08152094 -0.15791222 -0.0021669501
000020 8a ed d3 bd 10 31 b4 3d b4 17 b2 3d 6a 84 0b bd
       -0.10348041 0.087984204 0.08695927 -0.034061827
000030 54 30 04 be eb 6c 26 be 20 a5 9c bd ef 70 d2 bd
       -0.1290906 -0.16252486 -0.076486826 -0.102754466
000040 40 06 fc 3c ae ce 5b be 9c 7b 09 3e e2 ba 46 be
       0.030764699 -0.21465561 0.1342606 -0.19407228
000050 ac 6a c5 3d ce d0 a7 bd 81 78 41 3d 16 08 ba 3c
       0.09639487 -0.08194123 0.047234062 0.022708934
000060 77 e5 29 bd 61 1c 7e bc 20 a8 c1 3d 8b ba bd bb
       -0.0414786 -0.015509696 0.094558954 -0.00579006
000070 4e ab 08 3d 3a 38 60 be c6 5d b1 3d 13 65 1b 3c
       0.033366494 -0.21896449 0.08660464 0.009484547
000080 3f 3c 9d bc e1 62 60 bc 21 3a 45 3d 1b fe f1 3d
       -0.019193767 -0.01369545 0.04815114 0.11816045
000090 c4 4b db bd 23 2a 37 be e5 22 06 be 36 73 2e be
       -0.107078105 -0.17887168 -0.13099249 -0.17036137
0000a0 03 aa cc 3c 67 7e 28 be 04 3d 16 be 15 ef e2 3d
       0.024983412 -0.16454469 -0.14671713 0.110807575
0000b0 d8 4c e2 3d 11 b2 11 bd 7c a1 ca bd 65 c8 cd bd
       0.11049813 -0.035570208 -0.09894082 -0.10047988
0000c0 b9 62 26 3d 82 5f 66 be b9 3d 5c be ca d7 e7 3d
       0.040621493 -0.22497371 -0.2150792 0.11320455
0000d0 4b 3a 13 3e 5b 89 7f bd 04 fe 4b be 33 9e 50 bd
       0.14377706 -0.06238685 -0.19921118 -0.05093212
0000e0 d9 e9 15 be 85 c0 3d bd 5d f6 31 3d cc 4e e8 3c
       -0.14639987 -0.04632618 0.04344784 0.028357886
0000f0 24 28 87 bd 82 48 d6 bc 7b d5 67 bb ae a6 5a be
       -0.06599453 -0.026157621 -0.0035375047 -0.21352646
000100 19 b9 0a be ec 82 88 bd af c9 2a be d7 c1 14 be
       -0.13547172 -0.06665596 -0.16678499 -0.14527069
000110 e7 13 97 bb 92 ae 5b 3d 7d d7 68 bd c2 ac 10 be
       -0.004610527 0.05363328 -0.05684613 -0.14128402
000120 12 7d 4c 3d 48 8f 25 be fd 3f d6 bd 21 aa 09 3e
       0.049923964 -0.16167939 -0.104614235 0.13443805
000130 88 d4 55 bc 7f 7b 24 bd 1b de b9 3c a9 c0 b9 bd
       -0.01305116 -0.040156838 0.022688916 -0.0906995
000140 53 3d e5 3d 1d 0d 3d be b9 e6 b0 bd e0 8b 8d bd
       0.11193337 -0.18462034 -0.08637757 -0.06911445
000150 77 9b c4 bd e0 52 97 bd df 26 ae 3d d1 d5 be 3d
       -0.09599965 -0.07388854 0.08503508 0.09318126
000160 18 c9 8a bc 9a e9 04 3e d1 c9 42 be 47 67 31 be
       -0.016941592 0.12979737 -0.190223 -0.17324553
000170 43 33 b6 3c c5 28 63 bd 92 53 68 be 17 b5 40 be
       0.02224124 -0.055458803 -0.2268813 -0.1881908
000180 85 45 1c be 1c a6 c1 3d 1e 14 d8 3c f2 7b e5 3d
       -0.15260895 0.09455511 0.02637678 0.11205281
000190 b8 72 34 be 6c 33 66 be 94 54 15 be 22 11 32 bc
       -0.17621887 -0.22480553 -0.14583045 -0.010868343
0001a0 25 cb 90 bd 3b 18 07 be 32 c5 dc 3d d6 fe cc bd
       -0.07069997 -0.13192837 0.107797995 -0.100095436
0001b0 c4 3d 2d be 1e 89 ba 3c a1 2c f5 bd a8 ba 7f 3d
       -0.16918093 0.02277046 -0.11971403 0.06243387
0001c0 d4 52 9a bc f9 26 81 bd d3 d6 80 bc 81 cf 4f be
       -0.018838324 -0.063062616 -0.015727436 -0.20294
0001d0 43 1c 2c be 9b 35 20 be f3 cd 36 be ab ef 18 bd
       -0.16807656 -0.15645449 -0.17852001 -0.03733794
0001e0 97 d9 df bc 9d fe 16 be bf a5 66 3d 1b 7b 2a be
       -0.027325435 -0.14745565 0.05631041 -0.16648524
0001f0 2a eb d1 bc ab af f8 bd 3b 03 6b be 4b 01 44 be
       -0.02562483 -0.12142881 -0.22950451 -0.19141118
000200 d6 d1 26 3c bc 9e 45 3c 3f c7 39 be c3 fe fc bd
       0.010181865 0.012061771 -0.18142413 -0.123532794
000210 a8 04 70 be ca ea 2e 3d 05 70 d5 3d 4a b3 5d 3d
       -0.23439276 0.04270438 0.10421757 0.05412606
000220 31 f7 4a bc 59 17 c5 3d 70 21 07 3e 97 60 52 3d
       -0.012388037 0.09623594 0.13196349 0.051361647
000230 a5 23 7b 3d 03 a9 5a 3d a5 40 4b 3d 08 75 2b 3d
       0.06131329 0.05338384 0.049622197 0.041859657
000240 07 57 8a bd 4c 48 a8 bc 1b f3 8b 3d 92 35 65 3d
       -0.067548804 -0.020542286 0.06833478 0.05595929
000250 ab 99 15 3e a6 18 8f 3d dc af 36 3d 50 7d 92 bd
       0.14609401 0.06987123 0.044601306 -0.07152808
000260 96 82 5b bd 92 b4 8d 3d 21 d8 1d 3e 42 4d 86 3d
       -0.053591333 0.06919207 0.15414478 0.065577045
000270 27 f8 8a bd e7 6c 8a 3d b1 77 16 3e c0 a3 cb bc
       -0.067856126 0.06759053 0.14694096 -0.024858356
000280 14 74 41 3d 3d f0 82 3d 6e 63 c3 3b 5f df 0e bd
       0.04722984 0.06393478 0.0059627807 -0.034880992
000290 e6 9b 6a bc fa 06 18 bc 54 71 91 bb d7 98 93 bb
       -0.014319396 -0.009279007 -0.0044385586 -0.004504304
0002a0 f3 e4 8e 3c 0e 8a f9 ba ef 12 4c b9 e1 83 1a 3d
       0.017443156 -0.0019038336 -0.0001946201 0.037723426
0002b0 01 74 42 3d a5 b8 4e 3c 18 9a 16 3d 3f 73 fc 3c
       0.04747391 0.012617265 0.03676805 0.030816672
0002c0 fd 3b 17 3c 1d c7 14 3d fb a6 ba 3c 11 ee 45 3c
       0.009230611 0.0363227 0.0227847 0.012080685
0002d0 2a 59 e2 3d ad 0f 8c 3d fd 95 34 3d 04 7d 8e 3d
       0.11052163 0.068389274 0.044088352 0.069574386
0002e0 55 b6 5e 3d 83 3b 29 3d 8a 64 16 3d 4e 30 22 3d
       0.054373104 0.04131652 0.036716975 0.03959685
0002f0 fb 1c dd 3c 89 3b bf 3d f6 3d 12 3e 47 3c 6a 3e
       0.026991358 0.09337527 0.14281449 0.22874556
000300 db fc 50 3e 5e 24 19 be c7 dc a7 3d 65 37 51 3c
       0.20408957 -0.14955279 0.08196407 0.012769555
000310 17 ab c6 3d 95 2a a7 3b f4 b3 b7 3d d3 d4 05 be
       0.097006015 0.0051015117 0.0896987 -0.13069467
000320 c9 6f 0b 3e c5 e1 5d 3e f2 25 e5 3b 25 72 c9 bd
       0.13616861 0.21668155 0.006993049 -0.098362245
000330 c9 f8 f2 bd 20 cb ee 3b 48 ef 41 3d ec ff 5a 3d
       -0.11863858 0.007287398 0.047347337 0.053466722
000340 02 47 72 3d 5f 56 3e 3e ca 84 4a bb 26 00 b3 3d
       0.05914975 0.18587635 -0.0030901902 0.08740263
000350 66 e8 61 bd 33 f4 5b 3e 84 ff de 3d 8f 84 93 3c
       -0.055153273 0.21479873 0.108885795 0.018007545
000360 47 18 91 3d f8 f9 0b 3c d5 f0 fb bc a1 ef e5 bd
       0.07084709 0.008543484 -0.030754486 -0.11227346
000370 7a 1c 15 bd f0 4a 4c bd bc 3a 2a be 50 74 6b bd
       -0.03640411 -0.049876153 -0.16623968 -0.05748397
000380 4e a6 b9 bc 82 73 35 be 03 0f 10 bd b2 97 0b be
       -0.022662308 -0.17719844 -0.035170566 -0.13632086
000390 de 55 63 be 52 39 3a be 09 ba 62 be 68 6f a6 bc
       -0.22200724 -0.18185928 -0.2214128 -0.020316795
0003a0 0e 87 47 3d a6 85 d1 3d f4 3f 0a 3e cd 37 a1 3c
       0.048712783 0.102305695 0.13500959 0.019679928
0003b0 86 c1 05 3d 93 98 ad bd aa c3 cd 3d 52 82 07 be
       0.03265526 -0.08476367 0.100470856 -0.13233307
0003c0 27 e1 d3 bd 15 35 f2 bd d0 22 3e be df cd 11 bd
       -0.10345679 -0.11826531 -0.18567967 -0.035596725
0003d0 05 d4 60 3d 71 43 10 3e 22 28 11 3c 90 98 7c bd
       0.054889698 0.14088227 0.008859666 -0.061668932
0003e0 67 0f 68 3d 25 1f 17 3e 36 ec 4f 3d 2a 22 82 3d
       0.056655314 0.14757974 0.050762378 0.063541725
0003f0 1e be 37 3d 0e c2 1a 3e 4d 78 7f bd 5f 22 bc 3d
       0.044859044 0.15113088 -0.062370587 0.09186243

encoder.0.bias f4 [16]
000000 58 d3 06 3d b0 d7 1d 3d e5 d0 22 3e 7a 0b 03 3d
       0.032916397 0.038535774 0.159 0.031993367
000010 c2 cd fb 3d a9 c8 bb b9 a0 b1 fa bd a5 2f b4 ba
       0.122951046 -0.00035816923 -0.122409105 -0.0013747109
000020 59 37 b2 3d 0a 0f 9d 39 ae 4b c1 b5 12 ec 13 bc
       0.08701963 0.00029956579 -1.4401646e-06 -0.0090284515
000030 41 55 15 3d 4e 9a 3a 3e 5f ff 00 3c 47 d6 c4 bd
       0.036458258 0.18222925 0.007873385 -0.09611183

encoder.3.weight f4 [32, 16, 3, 3, 3]
000000 9b ec 18 b9 a3 3d 04 b9 d9 4d 4a b9 d0 1a 67 b9
       -0.00014583992 -0.00012611462 -0.00019293222 -0.00022039865
000010 41 4a dc b8 34 14 52 b9 43 07 35 b9 37 73 02 b9
       -0.00010504248 -0.00020034687 -0.0001726421 -0.00012440687
000020 6f 44 a1 b9 3f 8d b6 b7 6e f3 1b b7 eb a7 7e b7
       -0.000307593 -2.1761864e-05 -9.295398e-06 -1.5178676e-05
000030 a6 02 b7 b7 8e 7b 89 b7 63 29 06 b8 11 91 da b8
       -2.1816533e-05 -1.6389207e-05 -3.1986634e-05 -0.00010422071
000040 67 2d 4c b8 66 7d 27 b9 df b7 91 b7 05 82 74 b7
       -4.8679674e-05 -0.00015973076 -1.7370969e-05 -1.4573806e-05
000050 e7 5c eb b7 9b 25 c1 b7 69 17 14 b8 64 79 29 b8
       -2.8057444e-05 -2.3024904e-05 -3.5307752e-05 -4.0405794e-05
000060 ac 75 2b b8 e1 76 df b8 ef 1b 17 b9 13 d9 d2 b8
       -4.0879167e-05 -0.000106556115 -0.00014410888 -0.000100540135
000070 a6 57 79 b8 5e bc 22 b9 06 e3 a2 b8 19 4f eb b8
       -5.9447855e-05 -0.00015519696 -7.7670484e-05 -0.00011220406
000080 d5 64 df b8 dd f3 3d b9 b0 55 c8 b8 e4 a8 bb b8
       -0.0001065225 -0.00018115291 -9.552704e-05 -8.948313e-05
000090 39 f8 2b b9 78 c2 06 b9 c0 f5 cb b8 f9 35 d9 b8
       -0.00016400301 -0.00012851681 -9.725569e-05 -0.000103574195
0000a0 32 b5 16 b9 3e 4f af b8 dc 12 47 b9 52 fa b3 b8
       -0.00014372615 -8.35941e-05 -0.00018985145 -8.582011e-05
0000b0 8e 14 89 b9 8b 23 9f b9 4b 1d 15 b9 6f ca 1c b9
       -0.0002614599 -0.00030353325 -0.0001422066 -0.00014952732
0000c0 ca cb fc b8 fd f4 0a b9 c9 ce 30 b9 9a 9f b8 b9
       -0.00012054255 -0.00013251971 -0.00016861701 -0.00035214127
0000d0 6e 2b 54 b9 aa 7f 29 b9 ac 77 ac ba c5 b2 b6 ba
       -0.00020234074 -0.00016164655 -0.0013158224 -0.0013938776
0000e0 03 83 a9 ba 2b a1 a2 ba 45 32 5d ba 9a e0 91 ba
       -0.0012932721 -0.0012407651 -0.00084379717 -0.0011129559
0000f0 81 fd 8f ba 76 9b ab ba d9 c3 b1 ba dc a3 6d ba
       -0.0010985584 -0.0013092596 -0.0013562395 -0.00090652495
000100 79 24 81 ba 2d ce 8e ba 77 5d 5f ba bc 84 84 ba
       -0.0009852789 -0.0010895185 -0.0008520702 -0.0010110359
000110 20 83 89 ba 87 e8 9c ba e4 e5 05 bb 71 05 08 bb
       -0.0010491349 -0.0011971154 -0.0020431215 -0.0020755196
000120 72 00 96 ba 45 24 73 ba 4b 1d a8 ba 10 1f b3 ba
       -0.0011444225 -0.0009275119 -0.0012826113 -0.0013665874
000130 d8 f4 b0 ba af a9 9b ba 06 a5 35 bb 7d 65 38 bb
       -0.0013500703 -0.0011876131 -0.002771677 -0.0028136664
000140 54 17 98 ba 14 b6 0a 38 1d c1 91 38 cb 4a ee 37
       -0.0011603632 3.3071337e-05 6.950109e-05 2.840664e-05
000150 13 44 87 38 00 7f f3 37 97 7f da 37 5e 4a 08 38
       6.4499814e-05 2.9026996e-05 2.6047039e-05 3.2494187e-05
000160 44 dd 4f 38 ed d8 27 37 b9 97 07 38 8c 69 91 38
       4.9558716e-05 1.0004483e-05 3.232781e-05 6.9337984e-05
000170 35 20 2e 38 d2 66 e4 37 15 08 37 38 72 9c b2 37
       4.1514828e-05 2.7227597e-05 4.3638127e-05 2.1292104e-05
000180 7b b9 29 38 84 34 2f 38 c1 f3 88 37 af 22 83 b5
       4.0465482e-05 4.177216e-05 1.632597e-05 -9.770355e-07
000190 29 51 b2 36 a0 4b a2 36 6b dc 08 37 39 bb e9 37
       5.3142617e-06 4.83678e-06 8.157552e-06 2.7862947e-05
0001a0 75 e5 bc 36 ff 66 1e 37 44 56 41 37 d6 4e c5 b6
       5.629549e-06 9.4415145e-06 1.1523782e-05 -5.880235e-06
0001b0 19 86 28 ba 85 0b 29 ba 8d ad 0c ba 55 a5 11 ba
       -0.00064286735 -0.0006448555 -0.0005366437 -0.00055559474
0001c0 5f ad 43 ba f3 b7 00 ba a1 bb 30 ba 0d 0e b2 ba
       -0.0007464494 -0.0004910223 -0.0006741826 -0.001358451
0001d0 7a 7b 92 ba 6c 06 26 ba d1 f2 a9 b9 33 28 25 ba
       -0.0011175715 -0.00063333544 -0.00032415104 -0.00063002406
0001e0 4e ca 10 ba 6e 85 09 ba 26 86 0f ba 35 2f 8e ba
       -0.000552331 -0.0005246018 -0.0005475007 -0.0010847809
0001f0 8b 1a 57 ba 96 41 50 ba 3e ee 02 ba 55 fb 20 ba
       -0.00082055543 -0.00079443434 -0.00049946073 -0.0006140967
000200 22 4a 39 ba f8 e9 30 ba a9 b7 0f ba 45 e6 3b ba
       -0.00070682366 -0.0006748731 -0.00054823846 -0.0007167797
000210 d7 0c 68 ba e5 45 91 ba 1f 7c 9a ba c9 f0 c7 ba
       -0.0008852011 -0.0011083452 -0.0011786259 -0.0015254255
000220 b6 6e e6 ba 64 b5 4d ba 63 6b 1c ba 4a 46 cb ba
       -0.0017580602 -0.00078471587 -0.00059669296 -0.0015508619
000230 23 e2 5b ba a4 f8 bb ba 91 66 af ba 89 bf 36 ba
       -0.0008387884 -0.0014341068 -0.0013382008 -0.000697129
000240 58 1f 4e ba 09 e3 e6 ba cf 8d bc ba e6 41 ae ba
       -0.0007862947 -0.0017615269 -0.0014385524 -0.0013294786
000250 3f c6 15 ba e1 f2 40 ba d2 eb a9 ba b3 aa 93 ba
       -0.000571344 -0.00073604105 -0.0012963957 -0.0011266082
000260 b4 98 26 ba 8a ca d5 ba c8 6e 88 ba 4a be 52 ba
       -0.0006355152 -0.0016310972 -0.0010408992 -0.00080392195
000270 1d 53 d9 ba 08 ee d6 ba 32 49 52 ba 5c 2b 3c ba
       -0.0016580556 -0.0016397843 -0.0008021771 -0.0007178092
000280 df 21 60 ba fd f8 0d ba 49 6f c6 37 27 7c 21 38
       -0.0008549969 -0.0005415825 2.365526e-05 3.8501017e-05
000290 33 c7 16 37 5b e6 65 37 ac f7 1b 38 fc 88 38 38
       8.987076e-06 1.37030975e-05 3.7185542e-05 4.3996595e-05
0002a0 6b f9 8d 37 86 11 d1 37 20 3d 91 37 b3 85 b4 37
       1.6924654e-05 2.4922902e-05 1.731381e-05 2.151993e-05
0002b0 38 fc 97 37 97 bd 08 38 1e ef 02 38 aa 84 c0 37
       1.8118051e-05 3.2601496e-05 3.121711e-05 2.294996e-05
0002c0 c9 09 9a 38 10 ab f3 36 76 a8 dc 37 4c 4b 0d 38
       7.345115e-05 7.2618786e-06 2.630449e-05 3.3687145e-05
0002d0 29 9d dc 37 db bc cc 37 68 c8 c5 37 d9 8c 74 37
       2.6299227e-05 2.4406638e-05 2.3577551e-05 1.4576327e-05
0002e0 1f 12 09 38 11 af 1f 38 53 17 69 37 01 5a 31 37
       3.2680222e-05 3.8071597e-05 1.3893313e-05 1.0570978e-05
0002f0 15 5c 29 38 b6 f2 4e ba 63 b3 9d ba 01 7e ce ba
       4.0378498e-05 -0.0007894443 -0.0012031611 -0.0015754105
000300 f0 8a 68 ba d9 6f be ba 6c 7a 67 ba 7f 98 f7 ba
       -0.0008870801 -0.0014529183 -0.0008830193 -0.0018890052
000310 f0 89 88 ba ef 84 3c ba 91 bb 03 bb 3d 72 95 ba
       -0.0010417085 -0.00071914395 -0.0020100812 -0.0011401844
000320 e4 e1 68 ba 88 aa cb ba 8b 7f 3b ba 27 46 32 ba
       -0.0008883758 -0.0015538493 -0.0007152489 -0.00068006146
000330 24 eb fb ba 2e 56 30 ba 54 72 90 ba 91 79 8c ba
       -0.0019219858 -0.0006726709 -0.00110204 -0.0010717382
000340 6f 80 fc ba dc 58 7d ba 76 0d 58 ba 16 62 32 ba
       -0.001926435 -0.0009664425 -0.0008241752 -0.0006804777
000350 02 93 df ba 1d 01 79 ba 5f e9 88 ba 4c f7 d4 ba
       -0.0017057362 -0.0009498762 -0.0010445527 -0.0016248017
000360 59 73 8f b9 04 2a 13 ba e8 1b a6 b9 41 9d 16 ba
       -0.00027361026 -0.0005613866 -0.0003168278 -0.00057454786
000370 01 3b 0b ba 4d a0 f8 b9 24 10 5c ba 6c c2 62 ba
       -0.00053112215 -0.0004742168 -0.0008394739 -0.0008650187
000380 66 ef 58 ba 99 13 07 ba 0f 5c f6 b9 cb cf 0c ba
       -0.0008275419 -0.00051527616 -0.00046989365 -0.000537154
000390 9c df 0a ba 20 66 cd b9 41 e7 dd b9 5c 56 e9 b9
       -0.00052976026 -0.00039176736 -0.00042324702 -0.00044505566
0003a0 de 7d df b9 b7 9a f1 b9 b3 59 26 ba a5 5a 1b ba
       -0.00042627653 -0.00046082374 -0.00063457637 -0.0005926288
0003b0 5c 12 12 ba fb fd 1c ba 25 31 11 ba 99 4d 2f ba
       -0.0005572194 -0.0005988774 -0.0005538634 -0.0006687283
0003c0 3c 13 09 ba 13 39 0d ba 3c 79 59 ba 67 b7 4e ba
       -0.00052290014 -0.0005387228 -0.00082959584 -0.00078856054
0003d0 7b 01 2d ba b1 f0 7c ba e3 82 87 ba 6b b0 aa ba
       -0.0006599647 -0.0009648903 -0.001033869 -0.0013022547
0003e0 60 8b 59 ba b5 3e c1 ba 83 dc cf ba 8b 38 8b ba
       -0.00082986616 -0.001474342 -0.0015858564 -0.001062171
0003f0 1a 85 dd ba 5c f5 f6 ba 09 0b 8f ba 04 7c 5f ba
       -0.0016900629 -0.0018841433 -0.0010913323 -0.00085252547

encoder.3.bias f4 [32]
000000 cb 25 3a bb dc b0 90 bc 46 64 06 bd 51 85 b9 bc
       -0.0028403874 -0.017662458 -0.032810472 -0.022646578
000010 af dd 16 bd f5 fc 16 bc cd 4b 9d bc 2b c8 49 bc
       -0.036832508 -0.009215583 -0.019201184 -0.01231579
000020 51 fd 62 3b 5e 5f 84 bb 0f c2 1d 3d 52 3b 19 3b
       0.0034635852 -0.004039689 0.038515147 0.0023381305
000030 d9 2b a1 bb 70 fb 9d bb c0 8b a1 3c 0d 41 93 bc
       -0.004918557 -0.0048212335 0.019719958 -0.017975355
000040 97 20 7a bc f5 47 5a 3d 43 7e 0d 3d 64 db d0 bc
       -0.015266559 0.05329128 0.03454424 -0.025495239
000050 8f 01 45 bb 92 14 03 3d 32 2d 6e 3b 0a 7a 7c 3a
       -0.0030060743 0.03200204 0.0036342856 0.00096312223
000060 73 77 de bc c1 be 36 bc f2 be 56 bc 13 b1 58 3d
       -0.027156567 -0.011153878 -0.013107048 0.052903246
000070 2b ba 7f 3d 58 dd 00 3d 7b 0f 73 bb a4 c3 19 3d
       0.062433403 0.03146109 -0.0037088085 0.037540093

encoder.6.weight f4 [64, 32, 3, 3, 3]
000000 a3 35 ba b9 02 87 da b9 25 99 27 ba f0 27 0e ba
       -0.00035516647 -0.0004168079 -0.0006393365 -0.0005422821
000010 c4 91 39 ba b4 79 e7 b9 10 37 a7 b9 09 8e 33 ba
       -0.0007078911 -0.0004415043 -0.00031893747 -0.0006849473
000020 5e 43 05 ba 56 34 b2 ba 2e b2 9d ba 68 27 bc ba
       -0.0005083586 -0.001359592 -0.0012031251 -0.0014355006
000030 47 c9 ae ba 28 5f b0 ba fe dd 3a ba 4e b0 95 ba
       -0.0013335132 -0.0013456093 -0.00071284163 -0.0011420341
000040 3e c5 a9 ba 0f 58 9f ba 6b d8 18 ba 31 b3 10 ba
       -0.001295246 -0.0012156981 -0.00058305886 -0.00055198657
000050 8c d9 16 ba 23 d2 10 ba 30 12 05 ba 0a cc 27 ba
       -0.0005754463 -0.0005524477 -0.00050762575 -0.00064009486
000060 82 cd 26 ba b1 2f 18 ba aa 4d 31 ba bc b8 53 3c
       -0.00063630205 -0.00058054464 -0.0006763587 0.012922462
000070 2a 73 b1 3c 16 58 60 3c 22 7a 06 3b 40 04 d2 3c
       0.02166136 0.013692876 0.0020519574 0.025636792
000080 8f 46 b5 3c 0a e1 aa 3c 55 72 d9 3c c0 df f1 3c
       0.022128372 0.02085926 0.026543776 0.029525638
000090 eb 1d b3 3c d8 9a 37 bc 46 fe ce 3a 17 52 8e 3c
       0.021864852 -0.011206351 0.0015792332 0.017373128
0000a0 af 53 14 3d 25 12 c9 bb f9 f8 2e bb 3f 92 d5 3c
       0.03621262 -0.006136196 -0.0026698692 0.026070712
0000b0 bd a1 0a bc ba 1b f2 3c a8 19 32 3d 21 99 0c 3d
       -0.008461413 0.029554237 0.0434815 0.034325723
0000c0 a1 6e 1d 3d 09 9e 00 3c 61 8e 2f 3d 9d 76 dd 3c
       0.038435582 0.0078501785 0.042860392 0.027034098
0000d0 58 5c 74 3c 78 cc 2c 3c f4 5c bd b8 2d 92 0a 3b
       0.014914595 0.010546796 -9.029536e-05 0.0021144256
0000e0 aa 93 11 3c d6 61 11 3c db 0f 01 3c c0 7d ca 3b
       0.0088853035 0.008873424 0.007877315 0.0061795413
0000f0 db 93 ac 3c 32 c4 98 3c e8 71 6b 3c 51 9b 1b bb
       0.021066597 0.01864824 0.014370419 -0.00237437
000100 d7 f4 39 bb 74 61 86 bc e3 2e 77 3c 61 1f 98 3c
       -0.0028374696 -0.016403891 0.015086862 0.01856965
000110 e7 20 61 3b fa 20 a5 3c 18 d7 c9 ba 7b 84 41 bc
       0.0034351887 0.020157326 -0.0015399186 -0.011811371
000120 d8 05 da 3a 83 fb a4 3c 94 38 a2 bb 31 c4 1d bc
       0.0016633822 0.020139461 -0.0049505923 -0.009629295
000130 8b 73 2a bc 8e 03 5f bc 19 a2 9d 3b d7 3d 2b 3c
       -0.010403524 -0.013611687 0.0048105833 0.0104517555
000140 bc a5 a6 bb 59 94 1b 3d e7 55 4c 3b 57 ab 24 3c
       -0.005085675 0.037983272 0.0031179131 0.010050616
000150 75 40 6f bc be 3d cd bb d4 c3 ff 3c b1 f5 db 3c
       -0.01460277 -0.0062634638 0.031221308 0.026850553
000160 69 d4 97 3c f7 5c 36 3c 41 6a 1c bc a9 f0 3a 3d
       0.018533902 0.011130563 -0.009546817 0.045639668
000170 8a 20 55 3c d7 49 e5 bb e3 cc 51 bc de 1a 15 3c
       0.013008246 -0.006997328 -0.012805196 0.009100644
000180 3b d3 07 3c d0 05 08 bc 90 0a a1 bc 77 ed b4 bb
       0.008290107 -0.008302167 -0.019658357 -0.005521472
000190 ae 42 5c 3c 1f d3 9e 3b d6 ef 7d bc c9 5a 13 3d
       0.013443632 0.004846945 -0.015499076 0.03597525
0001a0 53 7c c2 3c 5f 15 d9 bb 6e 34 a9 3c df d9 e7 bb
       0.023740923 -0.006624862 0.020654883 -0.007075533
0001b0 cc e8 8b 3b 0f 45 28 3c d4 3b 96 3a c9 89 85 bc
       0.004269695 0.010270371 0.0011461922 -0.016301053
0001c0 19 27 d1 ba 2f e9 29 3b 10 66 77 3a 41 4f 95 3b
       -0.0015957087 0.0025926342 0.0009437511 0.004556567
0001d0 8c 68 ef ba fa dc 07 3c fc fb 94 bc f6 d4 80 3c
       -0.001826541 0.008292431 -0.018186562 0.015726548
0001e0 ca fc 47 3c e2 99 8a 3c 9a da 14 3c 1a 48 9d 3a
       0.012206266 0.01691908 0.009085322 0.0011999637
0001f0 48 a5 ca 3b c5 06 84 ba 32 87 d1 3c 8e e9 fa 3b
       0.006184254 -0.0010072818 0.025577161 0.0076572364
000200 75 59 e1 3c 79 52 e9 bb 4a 18 04 bb 1e a7 ac 3c
       0.027508477 -0.007120427 -0.002015608 0.021075781
000210 60 16 2b 3c 08 f6 95 3c cd 7d 0e 3c 2c 0b 3a 22
       0.010442346 0.018305793 0.008696985 2.5213615e-18
000220 47 68 b9 a3 08 bf 8e a3 e5 12 46 23 ed a4 d1 a2
       -2.0101903e-17 -1.5476576e-17 1.07376026e-17 -5.6824185e-18
000230 45 d4 50 a2 02 fa a7 23 5c 32 54 a3 ce d7 76 23
       -2.8301631e-18 1.8212059e-17 -1.1503207e-17 1.3381385e-17
000240 ba 2a 9f 23 6f 5b 32 a4 ab 42 95 a2 62 39 a8 22
       1.725691e-17 -3.8675045e-17 -4.045712e-18 4.5597248e-18
000250 c8 65 20 22 9e 24 98 a2 eb b9 4b a3 77 ca 32 a4
       2.1737926e-18 -4.1238453e-18 -1.1044022e-17 -3.8769092e-17
000260 66 cd 55 a3 e0 07 19 23 36 d6 34 a4 07 87 0d a4
       -1.1590248e-17 8.295814e-18 -3.9212722e-17 -3.0688874e-17
000270 86 9b cf a3 bb 72 47 23 72 02 31 24 6a a0 a8 23
       -2.2508852e-17 1.0812107e-17 3.8382828e-17 1.8282534e-17
000280 83 7e 0f a3 f8 9a 99 23 2a 42 27 3c 30 60 11 3d
       -7.7788354e-18 1.6653925e-17 0.010208646 0.035492122
000290 f2 7b a8 3c 0b c2 d2 3c ba 19 39 3d 96 07 57 bc
       0.020566914 0.025727293 0.04519055 -0.013124367
0002a0 ad d3 1a 3d ef b4 df 3c ee f0 89 3c f5 4c ee 3c
       0.037799526 0.027307956 0.016838517 0.02908943
0002b0 6d cb 11 3d 9d fb 1c 3d 0b 58 cb 3c d6 4b e3 3c
       0.035594393 0.038325895 0.024822256 0.027746122
0002c0 f7 ef 13 3b 46 78 21 3d 07 7b 4f 3c ac b4 81 bc
       0.002257345 0.039421342 0.012663609 -0.015833221
0002d0 55 fa 1e 3c 45 65 5a bc 60 0c 1d 3d dd df d5 3c
       0.0097032385 -0.013329809 0.03834188 0.026107723
0002e0 29 f6 ee 3c 2e a9 19 3d f3 3d 1c 3d 87 24 08 3d
       0.029170113 0.037514858 0.038145017 0.03323796
0002f0 9e 87 0a bb 4d be ef a3 66 ee 8d 23 06 d8 e4 23
       -0.0021137963 -2.5993027e-17 1.5388216e-17 2.4811299e-17
000300 fc 3b 99 23 6c 1e 41 23 1d 00 44 22 3a f0 7a 23
       1.6613698e-17 1.0468993e-17 2.6563013e-18 1.3603397e-17
000310 ab 6c 10 a4 61 bd ca 23 28 91 c3 a2 ed 91 98 a3
       -3.1317068e-17 2.1981089e-17 -5.3008546e-18 -1.6541675e-17
000320 ca 62 2d 23 e6 3a ee 23 bd 7b 66 a3 63 b5 af 24
       9.399268e-18 2.5828956e-17 -1.24945276e-17 7.620143e-17
000330 ad a7 cd a3 f5 dc 3c a4 aa fd 9d 23 69 cc 94 23
       -2.2297158e-17 -4.095316e-17 1.7129405e-17 1.6132763e-17
000340 e5 1a 1a 24 d5 a6 41 23 50 eb cd a3 70 5f ec 22
       3.3416207e-17 1.0497879e-17 -2.2325803e-17 6.4068977e-18
000350 f7 79 80 a3 57 8a 21 22 43 7d 8a a3 21 23 ae 23
       -1.3929442e-17 2.1892805e-18 -1.501504e-17 1.8879995e-17
000360 19 e7 a9 bb 80 02 24 bc 59 5f 95 3a 21 ec 40 bc
       -0.0051850197 -0.010010362 0.0011396214 -0.0117750475
000370 58 cd d8 3c 3d 2d 26 3d 97 c0 ff 3c b7 c3 f6 3c
       0.026465103 0.040570486 0.031219764 0.030122621
000380 6a 46 92 3c a5 a5 03 3d 51 e9 a4 bc 43 20 6c bc
       0.017855842 0.032140393 -0.020130785 -0.014411989
000390 b5 45 14 3c 9a c8 e4 3b 78 e0 c1 3c 33 8b 4a 3c
       0.009049823 0.0069819214 0.023666605 0.012362289
0003a0 44 a7 a7 3c b5 8c 1e 3d 03 b0 ea bb a2 ad 0f 3d
       0.0204655 0.038708407 -0.0071620955 0.0350777
0003b0 8c 44 24 3d 96 bd d9 b9 69 ad 89 bc c6 e2 08 3d
       0.040104434 -0.00041530718 -0.016806321 0.033419393
0003c0 1f bb 36 bc ae ca b7 bb 99 73 0a 3d ab 84 a3 bc
       -0.011153012 -0.005608878 0.03380165 -0.019960722
0003d0 cf bf 8d bb 8c 8c b8 bc 21 95 8f bc 84 c2 ed bb
       -0.004325844 -0.022527955 -0.017527165 -0.007255854
0003e0 91 3e e5 bb f0 ce e0 3b 25 61 46 39 94 c5 77 3c
       -0.006995984 0.0068606064 0.0001891894 0.01512279
0003f0 a9 b5 5a bd c4 a7 12 bd 8a ff 70 bd d4 71 02 bd
       -0.0533959 -0.035804525 -0.05883745 -0.031846836

encoder.6.bias f4 [64]
000000 7e d2 50 3d d2 50 f9 3b ea 45 aa 3c 48 e3 f3 3b
       0.05098199 0.0076085115 0.02078529 0.0074428655
000010 74 d1 5c 3c f1 bb ff 3c 26 4b 1b bc 10 f7 a3 3c
       0.013477672 0.031217547 -0.009478366 0.02001527
000020 16 b9 67 3d f7 b8 58 3c 99 99 1d 3d 21 d3 9c bc
       0.056572996 0.013227693 0.03847656 -0.019143643
000030 e9 65 60 3d 14 dc a7 bb e1 a6 30 3d 12 8c 9a bc
       0.05478469 -0.005122671 0.043127898 -0.018865619
000040 70 69 7c bb 04 9b c1 3c c6 2a f1 3c cf 14 ca bb
       -0.0038514994 0.023633488 0.029439341 -0.0061670314
000050 de d2 98 bc c2 3b 27 3b 7c ff b6 3c 78 cf 62 bc
       -0.018655237 0.0025517796 0.022338621 -0.01384341
000060 b6 43 a5 3c 56 c7 b0 bc 27 d2 b9 bc e7 4e d1 ba
       0.020173889 -0.021579426 -0.022683216 -0.0015968949
000070 2b e0 36 39 44 14 1b 3b e0 37 82 3d ea c6 1d 3c
       0.00017440382 0.0023663202 0.063583136 0.009629944
000080 77 e7 34 bc 3e a9 20 3d 80 e7 7d 3d d0 ee e3 34
       -0.011041514 0.039223902 0.061988354 4.2455804e-07
000090 e4 b9 1e 3d fa ec 7d 3d 61 2d aa bc c7 26 88 3c
       0.038751498 0.061993577 -0.020773591 0.016620053
0000a0 e8 53 e8 3c c8 74 e0 bc 3c f7 a8 3c 1c 8f 16 3d
       0.028360322 -0.027399436 0.020625703 0.036757573
0000b0 03 e3 a4 3c be 09 57 3d 71 75 74 3d 0b 5f 37 bc
       0.020127779 0.052499525 0.059682313 -0.011192094
0000c0 62 e5 f1 bb f8 80 14 3c 48 6c a4 bc f3 09 42 3d
       -0.007382081 0.009063952 -0.020071164 0.04737277
0000d0 46 57 f2 bb 30 d8 4a ba 42 be c1 bc 06 80 44 bc
       -0.0073956577 -0.0007737903 -0.023650292 -0.011993414
0000e0 37 45 51 3d f1 13 53 3d 90 f5 70 3d 93 45 26 3c
       0.0510914 0.05153269 0.058827937 0.010148424
0000f0 ce 33 8a bc 08 ee 79 3d 69 e8 12 b7 ea 17 61 3d
       -0.016870406 0.06101802 -8.75639e-06 0.054954447

decoder.0.weight f4 [32, 64, 3, 3]
000000 e7 7f e6 bc 5a 60 6c 3c 14 ef c6 3b b1 c1 95 bc
       -0.02813716 0.014427269 0.006070981 -0.018280836
000010 4d 34 1c 3d 2d d1 57 bc ed a8 90 3b 7f ee a1 bc
       0.038135815 -0.01317243 0.004414669 -0.019767044
000020 b2 7a a7 ba 1b b2 0a bc fe 0c e2 3c f5 d4 31 3c
       -0.0012777655 -0.008465315 0.027594086 0.010853996
000030 62 0d 7b 3c 4b 1d 16 3d ce 96 a2 bc 69 c3 e0 3c
       0.015323015 0.03664903 -0.0198473 0.027436929
000040 f2 63 d6 bc 80 2b 61 bb 7b dc f3 bc bf 49 85 bc
       -0.026170705 -0.0034358203 -0.02976822 -0.016270516
000050 06 64 1e bd 28 2c 03 bd 4a 1f 0d bd e6 40 38 bd
       -0.03866961 -0.032024533 -0.034453668 -0.044983767
000060 5a 7b 07 bd 74 b3 0e bd 3b 99 17 bd 91 a8 f5 3c
       -0.03307662 -0.03483911 -0.037011366 0.029987605
000070 04 35 89 3c 1c ce 05 3d ee d7 5e 3b 53 c0 05 3d
       0.016748913 0.032667264 0.0034003216 0.032654118
000080 3e 50 3e 3d ef 9f f6 3b 01 ed a4 ba 98 92 c3 3c
       0.046463244 0.00752639 -0.001258284 0.023873612
000090 06 21 0b 37 34 db 04 37 10 5f e9 35 a3 d5 06 37
       8.2927345e-06 7.91885e-06 1.738752e-06 8.036764e-06
0000a0 30 7c 19 37 9f 82 9d 35 09 fa 00 37 1b 89 02 37
       9.148425e-06 1.1735427e-06 7.68761e-06 7.780526e-06
0000b0 ae 78 dd b3 a6 08 58 bc b1 33 2b 3a cd 7f 39 3d
       -1.0313066e-07 -0.013185656 0.0006530835 0.045287896
0000c0 e5 dd 3f bc 5e 38 37 3d 44 f7 0b 3d 23 92 dd ba
       -0.011710619 0.04473149 0.034171358 -0.0016904514
0000d0 84 73 fa 3c 5a 15 8e 3c 1f 6a 92 bb ef c4 8d bb
       0.03057266 0.017344166 -0.004468217 -0.004326455
0000e0 69 e0 90 bb 47 e7 8d bb ce 47 8a bb 97 41 8c bb
       -0.004421283 -0.004330549 -0.0042199856 -0.00428028
0000f0 83 f1 92 bb 51 88 8f bb 45 7a 93 bb 96 9b 50 3d
       -0.004484357 -0.004380264 -0.0045006596 0.05092963
000100 f3 31 5f 3d cc 55 46 3d 5f 95 48 3d af f9 53 b8
       0.054490995 0.048421666 0.048970576 -5.0538856e-05
000110 96 2e f4 3c d3 8a 1e bc c9 b0 4c 3d 0a d7 50 3d
       0.02980737 -0.009676653 0.049973283 0.050986327
000120 5c b8 2b 3d 89 c7 12 3d e1 5e 19 3d fa e2 43 3c
       0.041923866 0.035834823 0.037444 0.011955971
000130 41 ee fe 3c 17 4e ca bc 93 10 10 3d 93 59 52 3d
       0.031119468 -0.02469544 0.035172056 0.051354956
000140 db 49 9b 3c 5d 1a cb 3c dd 0c f5 3c 65 cc b0 3c
       0.018956115 0.024792844 0.02991336 0.021581838
000150 92 e4 1a bb 58 d1 1a 3d 05 17 0e 3c 1d 59 96 bc
       -0.0023634774 0.037797302 0.0086724805 -0.01835304
000160 86 d6 43 3b 41 a6 3b 3c 84 d2 e9 39 1a 13 39 3d
       0.0029882505 0.011453212 0.0004459807 0.045184232
000170 1f 1f 16 bc 4a 58 c9 ba 86 3e 47 3c d7 f6 5a 3b
       -0.009162693 -0.0015361395 0.012160903 0.0033411288
000180 81 a6 b6 3b b9 95 b6 3b 77 0b a8 bc e9 20 d6 bb
       0.005574048 0.0055720476 -0.02051328 -0.006534685
000190 c0 53 a1 bb c2 33 c4 bb e0 d0 5e b9 f8 b8 52 ba
       -0.004923314 -0.0059876153 -0.00021249382 -0.0008038427
0001a0 d7 83 b8 bb 0e 93 88 bb ef ed ad ba 11 67 a1 bb
       -0.005630951 -0.004167921 -0.0013269762 -0.0049256166
0001b0 e2 7d 60 bb 20 96 e0 3c 93 83 a6 3c cf 6c 0a 3a
       -0.003425472 0.027415335 0.020326411 0.0005280496
0001c0 de 86 94 bb 55 6e 37 bc 5b 86 21 3d f7 0c 45 3d
       -0.004532679 -0.011195739 0.039434772 0.048108067
0001d0 4a 95 f5 3c 30 dc 2a 3b d3 c3 5e 3a 1a cb 87 ba
       0.029978413 0.0026071183 0.0008497808 -0.0010360212
0001e0 c0 17 c9 ba f5 3e 51 3a 9d 17 13 bb 4b 44 ac 39
       -0.0015342161 0.00079820986 -0.0022444495 0.0003285728
0001f0 3f c4 70 ba 6f 15 b8 ba f0 c0 02 3d bc a6 d2 bc
       -0.00091845164 -0.0014044474 0.03192228 -0.02571427
000200 e9 a4 25 3d a0 58 49 3d 14 86 53 3a 2b 95 75 bc
       0.040440474 0.049156785 0.00080689904 -0.014989178
000210 c1 9c 7c 3c 11 df 7f bc ba c0 af bb 0b 46 89 3c
       0.015418232 -0.015617148 -0.005363551 0.016757032
000220 05 3e 88 3c cc f5 83 3c f2 7a 7f 3c 43 90 85 3c
       0.016631136 0.016108416 0.015593277 0.01630414
000230 0a fb 83 3c e5 60 88 3c 7d 5b 7b 3c ac 5a 81 3c
       0.016110916 0.016647765 0.015341637 0.015790306
000240 20 c6 c2 35 6e 70 91 36 f5 b4 cd 37 7c 41 9e 35
       1.4511788e-06 4.3344253e-06 2.4522169e-05 1.1790976e-06
000250 0d 5b ac b7 f9 6c 0a 38 3b 07 90 36 e8 67 8b 37
       -2.0546397e-05 3.3003253e-05 4.292376e-06 1.6618476e-05
000260 eb 93 13 37 b2 18 ad 3a 09 c8 f7 3a a9 02 b6 bc
       8.796323e-06 0.0013206212 0.001890422 -0.022218065
000270 a9 2f 14 bc 15 29 3e bc 62 d1 d7 bb c5 0b 44 bb
       -0.009044566 -0.011606474 -0.0065862397 -0.0029914242
000280 19 97 2a 38 e8 6e 1b 3c ca 1c db bc 10 26 a4 3c
       4.067188e-05 0.009486891 -0.026747126 0.02003768
000290 64 ac 0d 3d 6c 11 f3 3c 3e 54 c3 3c 3b 99 12 bb
       0.034588233 0.029671393 0.02384388 -0.0022369165
0002a0 98 16 ab ba 9a 50 c7 3c 8a c6 29 3d 39 ca 93 3c
       -0.0013052998 0.024330426 0.041449107 0.018040763
0002b0 dc 96 e2 3b d5 b0 ca 3c 49 f3 dd bc 13 7a 01 3c
       0.0069149565 0.024742523 -0.027093546 0.00790264
0002c0 51 d7 eb 3b 70 1a 6d bc 25 6c db 3a eb 0c 1f 3d
       0.0071972986 -0.014471635 0.0016740604 0.03883068
0002d0 4a f6 bc bd 8d 7c 04 be 00 02 b4 bd 2d 98 6f bd
       -0.092266634 -0.12938137 -0.08789444 -0.058494736
0002e0 a4 49 31 bd a8 60 0a 3d 35 60 31 bd 5d 1a db bc
       -0.04328312 0.033783585 -0.04330464 -0.02674597
0002f0 c1 44 6e 3d 72 55 be 3c 67 9f d0 bc cd 6f bf bc
       0.058171038 0.023234103 -0.025466634 -0.02336874
000300 a8 38 e2 3c 25 53 9f bc a9 59 e1 3c 0b 68 81 bc
       0.027614906 -0.019448826 0.027508574 -0.015796682
000310 c3 d6 d2 bc c0 ea c7 bc 1d 0e 65 bc 8e bb 50 3b
       -0.025737172 -0.02440393 -0.013980416 0.0031850073
000320 33 7d 78 3c 54 78 61 3d 82 10 30 3d 4c 22 19 3d
       0.015166569 0.055046394 0.042984493 0.037386224
000330 cd af 88 bc 6e c5 53 3d c4 eb 1b 3d c5 7e cc 3c
       -0.01668539 0.051701955 0.03806664 0.024962792
000340 15 35 c0 bb b0 27 9c 3c d3 23 21 3d 0d fe 25 3c
       -0.005865703 0.019061893 0.039340805 0.010131371
000350 d2 d6 d1 bb 89 17 0a 3c 34 57 cd bb b2 b6 8c 3c
       -0.0064037824 0.008428463 -0.006266499 0.01717696
000360 7a 66 f8 3b ef d2 02 3d 40 eb 8f 3c 77 1e c4 3c
       0.0075805755 0.031939443 0.01756823 0.023940308
000370 a6 63 00 3d f0 2f a4 3b 61 b8 e0 3b 77 ea af bc
       0.031345032 0.0050105974 0.006857917 -0.021474106
000380 2e fc c8 3c 22 44 26 3b d4 1b 92 bc 09 be 66 bc
       0.024534311 0.00253702 -0.017835535 -0.014083394
000390 f7 7c b0 bc 7e 09 63 3c d3 34 c2 3b 21 95 e1 bb
       -0.021543963 0.013857244 0.0059267073 -0.0068842326
0003a0 b7 98 5d 3c 3b c8 47 bc fd e3 8f b9 6f a4 4d 3b
       0.01352518 -0.012193735 -0.0002744495 0.0031378528
0003b0 01 8f 14 3a 3e 79 f3 3a 3e a1 de 3a e5 80 87 3a
       0.0005667061 0.0018575562 0.001698531 0.0010338096
0003c0 b6 4a b5 3a ee 68 29 b9 8a cd 3c 3b 0f df 96 3b
       0.001383147 -0.00016156185 0.0028809034 0.0046042274
0003d0 db c7 16 3d a1 e0 c5 3c 55 28 4a 3d 3d 85 ee bb
       0.03681169 0.024154963 0.04935487 -0.007279067
0003e0 79 be 72 3c 6f 58 41 3c 13 89 4a 3b 84 b0 ee bc
       0.01481592 0.011800869 0.0030904457 -0.029136904
0003f0 07 36 62 bd d1 a8 80 bc 3c c3 ae bc a3 c1 4e bd
       -0.055227306 -0.015705498 -0.02133333 -0.050477635

decoder.0.bias f4 [32]
000000 49 b8 21 3d 9b 29 1e 3d 66 ad 53 3d 9f ee 3c 3d
       0.03948239 0.038613897 0.051679038 0.046126004
000010 02 8d 0c 3d 5d 11 1f ba 0c c8 0e bd 4d 75 2d 3c
       0.034314163 -0.0006067956 -0.03485875 0.010587049
000020 be 04 91 3b 44 16 c2 3c 87 b2 39 3d 43 01 4a 3d
       0.004425614 0.023692258 0.045336273 0.04931761
000030 67 4a b7 3c 57 b0 89 3c bc d0 73 b7 2f fd d7 bb
       0.022374345 0.016807718 -1.4532528e-05 -0.006591461
000040 25 05 be bb a5 bc 46 3d c5 98 e6 bb 26 31 2d 3d
       -0.005798953 0.04851975 -0.0070372545 0.0422832
000050 73 b2 2b bc 70 87 2b bd 7c 2c fc 3c d7 05 08 3d
       -0.010479557 -0.04187721 0.03078293 0.033208694
000060 28 7a 21 bc be f7 0a 3d 20 2f 14 3d ab 4f 1e 3c
       -0.0098557845 0.03392767 0.036177754 0.009662549
000070 4c 8a 00 3d a9 88 08 bc 4f 22 39 3d 27 56 83 3c
       0.03138189 -0.008333364 0.045198735 0.016032292

decoder.3.weight f4 [16, 32, 3, 3]
000000 58 f5 1c 3d 9f fe 1b bd 35 9b 5d 3d 29 ba 1f 3d
       0.038319916 -0.038084622 0.054103095 0.038995896
000010 96 3f d3 bc 1d cc d6 3c d9 29 1a 3d 65 43 0e 3d
       -0.025787156 0.026220376 0.037637565 0.03473224
000020 a1 34 4c bd b1 fe 8d 3d cd 0f f6 3d 6e ec 01 3e
       -0.04985488 0.06933344 0.120147325 0.12687847
000030 b1 15 93 3d 2f 5a f1 3d 07 d2 fb 3d 8c 32 89 bc
       0.07181872 0.11784779 0.12295919 -0.016747735
000040 9a 2f 56 3d 4a a4 71 3d d4 bc 50 3d 07 ce a3 3b
       0.05229149 0.05899457 0.05096133 0.0049989256
000050 39 17 1e 3d a3 82 8d bb 43 4b ec bc 01 a8 bc bc
       0.038596366 -0.0043185516 -0.028844481 -0.02302933
000060 ee 5c 5a bc 58 65 9b 3c d0 ed 34 3d 8d c2 8b bc
       -0.01332782 0.018969223 0.04417211 -0.017060542
000070 d9 cc cc 3c 7e 80 c9 3c 2a d9 f1 3b ef c0 4a bc
       0.025000023 0.024597403 0.0073806243 -0.0123751005
000080 ae f6 5f 3d c5 fc 28 bd 30 ef 70 bc f6 71 81 bb
       0.05467861 -0.041256685 -0.014705464 -0.003950353
000090 e4 e9 8c bd a5 04 2c 3d a0 51 2f 3d 45 93 94 3b
       -0.068805486 0.041996617 0.042802453 0.0045341575
0000a0 a0 9b a8 3b e1 29 99 bb 70 58 3e 3b e9 6c 10 bd
       0.005145505 -0.004674182 0.0029044412 -0.035260115
0000b0 f3 dd f4 3c 12 88 86 a6 43 a3 2c 27 68 04 8d 27
       0.02989099 -9.335e-16 2.39583e-15 3.914014e-15
0000c0 f6 e7 3e a6 40 0d 5c 26 4b 40 63 27 56 4c 05 a5
       -6.623386e-16 7.634579e-16 3.1537432e-15 -1.1561775e-16
0000d0 92 a4 69 26 8b 99 12 a7 11 01 db bb 95 23 35 bc
       8.106115e-16 -2.0344806e-15 -0.0066834767 -0.011055847
0000e0 90 10 cd bc fe fa 13 bd cd 3d cd bc a9 7f da bc
       -0.025032312 -0.036128037 -0.025053883 -0.026672201
0000f0 16 10 41 bd 82 9f 03 bd 3f 2c fb bc 73 62 d9 3d
       -0.04713448 -0.03213454 -0.030660747 0.10614481
000100 35 38 c3 3d 36 18 b3 3d 75 73 4f 3d 00 57 0c 3d
       0.09532205 0.08744852 0.050647218 0.034262657
000110 8b 39 c1 3c 9a 4e 66 3d 04 88 37 3d 11 43 13 3d
       0.023587009 0.056227304 0.04480745 0.03595263
000120 3f 3d 9b bc 0c e9 46 bd d9 5b e7 3b fd 0b 0f 3d
       -0.018950103 -0.048562095 0.0070605096 0.034923542
000130 77 b8 2d 3d 22 55 71 3d 39 fc 51 3c 46 40 be 3c
       0.042412248 0.05891908 0.012816482 0.023224007
000140 35 70 80 3b f9 4b 4b 3d b9 c4 70 3d 80 f2 b2 3d
       0.003919626 0.049633 0.05878136 0.087376595
000150 1b 92 75 3d 4f 49 b2 3d 7e 02 a7 3d 96 4d 34 3d
       0.05995379 0.08705389 0.08154772 0.044019304
000160 af 46 8b 3d fe 69 8f 3d 39 1f 9c bc 01 fd 89 3b
       0.06800591 0.07002638 -0.019057857 0.0042110686
000170 b0 f5 a3 3b f2 3d bb bc 21 0d c8 ba 42 43 72 3a
       0.0050036535 -0.022856686 -0.0015262702 0.00092415896
000180 91 1e 15 bd 24 45 2a bc a7 e6 69 bc e1 ab a7 bc
       -0.036406104 -0.010392461 -0.014276183 -0.0204677
000190 1c 52 f1 bb 06 97 52 3c d8 ae 38 3c 17 cf dc bc
       -0.0073645245 0.01285339 0.011272155 -0.026954217
0001a0 bd 39 17 3c 2a 4a a2 bc 7a 00 25 39 df 24 8d 3c
       0.0092300745 -0.019810755 0.00015735804 0.017229496
0001b0 eb c6 fc 39 69 65 76 39 82 88 39 b9 89 d6 c1 39
       0.0004821339 0.00023498166 -0.00017693828 0.0003697167
0001c0 0a 00 31 39 5c 98 62 b9 04 7f 83 39 0c c0 06 39
       0.0001688005 -0.00021609798 0.000250809 0.00012850779
0001d0 90 1b 67 b9 fd cd b1 3c c9 46 9e 3c 9d 0f 99 3c
       -0.00022040145 0.021704668 0.019320862 0.018684203
0001e0 0c aa bc 3c 34 96 a8 3c a0 6c bf 3c 30 37 83 3c
       0.023030303 0.020579435 0.023367226 0.016017526
0001f0 30 d9 e8 3c 25 02 c8 3c bb 21 8b bb d4 fa 87 bb
       0.028423876 0.024415085 -0.0042459643 -0.004149774
000200 e6 ba ac bb 35 2b 86 bb b7 bf b0 bb 7d d4 82 bb
       -0.0052713035 -0.004094506 -0.005393948 -0.0039926157
000210 41 9b 8c bb 46 5e 63 bb 00 b5 8e bb d1 b0 06 bd
       -0.0042909686 -0.0034693643 -0.004355073 -0.03288347
000220 33 3c 2c bd 08 a0 13 bd 87 3b 7e bd 0e 2f 4b bd
       -0.042049598 -0.03604129 -0.06206849 -0.04960542
000230 0e 28 2b bd 2c 38 a6 bd 95 ff 4e bd 68 0b 8f bd
       -0.041786246 -0.08116183 -0.05053671 -0.069845974
000240 1c 68 11 25 2d d8 5d 23 c9 35 1c 23 22 ce f7 a4
       1.2612019e-16 1.2026211e-17 8.468166e-18 -1.0746838e-16
000250 e1 68 9b a3 4b e1 15 a3 b1 a0 63 23 ad ea ec 22
       -1.6849552e-17 -8.125014e-18 1.2339722e-17 6.42164e-18
000260 9a 67 1b 23 12 e2 8c bc 3c a1 bf 3c 8e 74 3a 3d
       8.424505e-18 -0.017197642 0.023392312 0.04552131
000270 09 22 00 3c 43 07 01 bd ef 8e 0b 3d d6 88 09 bd
       0.007820615 -0.031501066 0.03407186 -0.033577763
000280 ee 05 40 3d 14 f9 15 3b e8 72 82 a3 a4 82 32 a4
       0.046880655 0.0022884058 -1.4143293e-17 -3.8708254e-17
000290 12 8f 8e 24 06 29 bf 23 39 ae 58 25 85 14 3e 23
       6.1825054e-17 2.0725636e-17 1.8794042e-16 1.0304266e-17
0002a0 6c 3e 15 24 70 7f c1 21 93 24 79 24 04 c5 fc 3a
       3.2362098e-17 1.3111921e-18 5.4024248e-17 0.001928479
0002b0 1b ca c6 3c ab bb b9 3c 18 dc 66 3c 64 7a 0d 3d
       0.024266293 0.022672495 0.01409056 0.03454055
0002c0 e0 0a 83 3d 56 35 3c bd 54 e4 11 bd 4d 0b 57 3c
       0.063985586 -0.045949303 -0.03561814 0.013125253
0002d0 9b 45 78 a8 78 d1 0e 2b 85 40 58 2b 31 76 1d 29
       -1.3781859e-14 5.073923e-13 7.6828154e-13 3.4963518e-14
0002e0 02 7f 0c 2c 94 88 89 2b 29 93 d0 a7 13 1e 57 2b
       1.99657e-12 9.772344e-13 -5.789115e-15 7.642508e-13
0002f0 e4 09 90 ad b6 89 62 bd 4a d9 9e bc 75 92 a2 3c
       -1.6375297e-11 -0.055307113 -0.01939072 0.019845227
000300 5b ec 63 bc f0 09 6a bd 58 66 85 bd ac c5 94 bc
       -0.013911332 -0.057138383 -0.06513661 -0.018160664
000310 16 fa 31 bd 02 a1 4d bd 2f b9 a5 bc 26 64 0a bd
       -0.04345139 -0.050202377 -0.020229904 -0.033786915
000320 51 77 0a bd 31 48 aa bc e4 87 93 bc 42 95 e9 3a
       -0.033805195 -0.020786377 -0.018009134 0.0017820972
000330 08 96 8f bc 98 7a 61 bc 2b 45 51 bc 74 d9 35 3c
       -0.017527595 -0.013762139 -0.012772839 0.011099208
000340 48 32 0e 3d 60 1e b1 3b df cf 85 ba 38 56 e2 3b
       0.03471592 0.0054052323 -0.0010209045 0.0069072507
000350 49 81 de 3b 22 df 06 3d 94 96 32 bd ad 6b 49 3c
       0.0067903143 0.03292764 -0.043600634 0.012293738
000360 aa db 37 3c 6d 36 3c 3c b9 c1 40 3c 26 73 37 3c
       0.011221806 0.0114875855 0.011764937 0.011196887
000370 c6 44 3b 3c 55 17 3f 3c c0 98 30 3c fa 50 34 3c
       0.011429971 0.011663278 0.010778606 0.011005634
000380 17 41 38 3c 33 bb 05 3b 99 9e fb 3b f7 ef 57 3d
       0.011245987 0.002040577 0.0076788184 0.052719083
000390 3a 8e 98 bc 29 6f e3 b9 6f 67 89 3c e6 74 b1 3b
       -0.018622506 -0.00043379635 0.016772954 0.0054155467
0003a0 f8 4d ce bc ce 90 45 3d ef 82 9f 3c d9 0d ed bc
       -0.025183663 0.0482338 0.019471614 -0.028937267
0003b0 d6 68 68 3c 9f b4 f2 3b 1f 76 3f bd e9 31 1c bc
       0.014185151 0.0074067856 -0.04674351 -0.009533384
0003c0 34 88 fc bc 90 73 3f bc e0 09 0b bc e8 e4 aa 3c
       -0.030826665 -0.011685267 -0.008486241 0.020861104
0003d0 5d 60 34 bb 8f 46 9d bc 1a 8a 0c 3c a7 68 10 bd
       -0.0027523257 -0.019198684 0.008577848 -0.035256054
0003e0 7c ef 2d 3d 25 05 90 bc da 19 09 bd a3 44 41 3b
       0.04246472 -0.017580578 -0.03347192 0.0029490374
0003f0 62 db a2 39 14 76 8a 39 ff d8 3c 39 3c 6e 2a 3a
       0.000310625 0.00026409386 0.00018009914 0.00065014116

decoder.3.bias f4 [16]
000000 40 fc 0a bd 5c fb 66 3d 16 aa c9 3c c3 0e bf bc
       -0.03393197 0.05639206 0.024617236 -0.023322469
000010 03 23 c4 36 85 6f a4 bc 7a bb 84 b9 95 7b 2c bd
       5.845331e-06 -0.020072708 -0.00025316683 -0.042110045
000020 e6 e2 ef 3c 2c 0b 2d bc 31 bd 80 3c 71 74 14 3d
       0.029282998 -0.010561746 0.015715213 0.03624386
000030 40 78 cb 3c 8e 2f 01 bc db 0d 7e 3c 46 d1 e3 3c
       0.024837613 -0.007884873 0.015506233 0.02780975

decoder.6.weight f4 [1, 16, 1, 1]
000000 45 fd 69 be 2f 3b 9e bd b0 ad 83 be 12 0b d9 39
       -0.22850521 -0.07726132 -0.2571845 0.00041397713
000010 a9 e6 8f bc e2 b1 11 be 65 04 6a 3d 39 06 30 be
       -0.017566042 -0.14228013 0.057133097 -0.17189874
000020 9a b2 a2 3d 6e 26 52 3e 2c a0 25 be c6 04 4b be
       0.07944222 0.20522472 -0.16174382 -0.1982604
000030 45 6c 6f be 88 ae c2 bd 7f 49 4a 3e 7c ee 30 bb
       -0.23381145 -0.095059454 0.19754599 -0.0026997617
